model/ddu_plus_layer2.tflite (tflite, 441124 bytes, 6 tensors)

sequential/dense_1/BiasAdd/ReadVariableOp f4 [150]
000000 0c 8b 24 c0 a7 76 3b bf aa f0 d1 be 5e e7 0a c0
       -2.5709867 -0.73227924 -0.41003925 -2.1703715
000010 14 bc df bf e0 f3 05 c0 36 f7 fd bf d4 53 d2 bf
       -1.7479272 -2.09301 -1.9841068 -1.6431832
000020 c4 7f 96 3e ff 22 99 40 5d 2a de 3f 66 7b 00 40
       0.29394352 4.785522 1.7356678 2.0075316
000030 c1 e0 dd c0 31 bc 9e 40 89 c8 43 c0 af d4 03 c1
       -6.933686 4.9604726 -3.0591147 -8.239425
000040 df 0c c8 40 17 86 70 3c 71 c5 98 3c 89 0d a0 bf
       6.251571 0.014680407 0.018648835 -1.2504131
000050 96 ce 64 bf f1 e9 84 bf 25 1d cd bf a2 66 ac bf
       -0.89377725 -1.0383893 -1.6024519 -1.3468821
000060 9b 28 5f c0 93 2f d2 3e 9d 7c 45 40 3f 2d 11 c0
       -3.4868534 0.4105192 3.0857308 -2.2683866
000070 7c 7d a9 bf 0a 9d 3d c0 01 dc 0a bf c4 0b cb bf
       -1.324142 -2.96271 -0.5424195 -1.5862966
000080 34 87 72 c0 b5 ce 3b 3f 52 bd b9 c0 ac 5a a3 bf
       -3.7895021 0.73362285 -5.8043604 -1.2762046
000090 f6 bd 4c 3f 33 c9 c2 bd 74 38 fb 40 8c e6 0f c0
       0.7997736 -0.09511032 7.8506413 -2.2484465
0000a0 3a f8 2d c0 10 87 1c 3e 58 b3 83 40 fe e1 ee bf
       -2.7182755 0.15285897 4.1156425 -1.8662717
0000b0 79 04 36 40 d6 1b 84 bf 39 4f db bf b8 11 03 be
       2.844023 -1.0320995 -1.7133552 -0.12799728
0000c0 45 44 2d 40 c1 40 8f bf 84 82 3b bf 08 31 5f bf
       2.7072918 -1.1191636 -0.73246026 -0.8718419
0000d0 b0 91 ee bf 62 fe 5b 40 c8 45 22 c0 b6 f9 bf bf
       -1.863821 3.4374013 -2.535509 -1.4998081
0000e0 43 a4 08 bf a9 66 ac 3f 50 17 fc bd 6d fa 19 3f
       -0.53375643 1.3468829 -0.12309134 0.60147744
0000f0 68 53 3b c0 40 34 10 3e 39 26 22 bf 56 60 b3 3f
       -2.9269657 0.14082432 -0.63339573 1.4013774
000100 cc 2b 16 3f 8e c6 65 bf b1 4d 3c bf d3 37 0e c0
       0.5866058 -0.89756095 -0.7355605 -2.2221572
000110 3c e5 d7 bf 35 f8 98 bf eb 95 d0 be 00 4c 62 bf
       -1.6866832 -1.1950747 -0.40739378 -0.88397217
000120 5e 40 d2 3f 04 a9 d3 bf 39 1a 61 c0 b9 bc 30 bf
       1.6425893 -1.6535954 -3.5172255 -0.6903797
000130 a6 f7 81 c0 b1 69 5e c0 8f 65 ec c0 1e 9c c6 3e
       -4.0614805 -3.475201 -7.3873973 0.38790983
000140 40 85 1f 40 38 b8 12 be 97 13 38 c0 e0 ec 5d 3f
       2.492508 -0.14328086 -2.8761957 0.8668957
000150 27 d7 91 3f 74 99 3c c0 3f 20 7d c0 b7 10 fb bf
       1.1393784 -2.946866 -3.9550931 -1.9614476
000160 4a 4e 6f 3f 9b 77 1a c0 54 96 ee 3f 27 32 3b bf
       0.93478835 -2.4135501 1.8639627 -0.731234
000170 77 ef a7 40 4e 73 8d c0 30 b5 83 bf d6 ec 3a c0
       5.2479815 -4.4203253 -1.0289669 -2.9207053
000180 c3 1e 0f bf 57 47 55 c0 68 28 11 c0 d7 fd 39 c0
       -0.55906314 -3.3324792 -2.2680912 -2.9061182
000190 8f 16 ac bf 22 d6 7f bb e9 1c bd c0 14 3c c9 be
       -1.3444384 -0.0039037545 -5.909779 -0.39303648
0001a0 a0 1a 40 c0 7e 40 c5 bf 9a 1d 50 bf 9b d4 26 3f
       -3.001625 -1.5410306 -0.8129517 0.6516816
0001b0 54 c9 a8 c0 53 11 ce bf 58 3f c8 3e 1d 7e d0 bf
       -5.274576 -1.6099037 0.39110827 -1.6288487
0001c0 8c ec 86 bf 81 18 c2 bf e9 b3 1e c0 54 95 68 bd
       -1.0540938 -1.5163728 -2.4797308 -0.056783035
0001d0 60 92 31 c0 a3 d2 53 40 24 bf b8 40 4d 12 be c0
       -2.774559 3.3097312 5.7733326 -5.939734
0001e0 32 6e 2d be 2c 88 eb bd 8a b1 97 be bd af 1f c0
       -0.16936567 -0.11500582 -0.2962764 -2.4951012
0001f0 d4 4d 43 c0 72 68 b1 bf 87 ec 3a 40 5c f6 80 bf
       -3.0516253 -1.3859999 2.9206865 -1.0075183
000200 85 c1 fa bf 35 cb c9 bf b5 b7 7f c0 35 54 39 c0
       -1.9590307 -1.5765139 -3.9955876 -2.8957646
000210 56 63 a8 bf aa ea 29 bf 52 bf b8 be 99 5a ae bf
       -1.3155315 -0.66373694 -0.36083466 -1.3621398
000220 fe 21 3b 40 43 36 22 c0 11 73 a0 c0 05 c3 76 bf
       2.9239497 -2.5345619 -5.014046 -0.96391326
000230 13 d1 9f bf 25 a5 62 40 27 4c 09 be 93 b8 8e 40
       -1.2485679 3.5413296 -0.13407956 4.460031
000240 6d 4a 44 bf c3 bc d6 3f b8 02 d9 3f ff a0 94 be
       -0.76676065 1.6776356 1.6953955 -0.2902908
000250 50 14 dc 3e 96 0b e4 bf
       0.42984247 -1.7816036

sequential/dense_2/BiasAdd/ReadVariableOp f4 [8]
000000 24 c4 09 3f e2 b6 a6 bf e8 2d d7 3d 94 83 55 3f
       0.5381491 -1.3024561 0.10506803 0.834039
000010 f4 f2 95 3e 9f fb ea be c4 fb d8 be 5b 83 d4 3e
       0.2928692 -0.45895097 -0.42379582 0.41506466

sequential/dense/BiasAdd/ReadVariableOp f4 [400]
000000 0c 48 45 bc 2a 98 24 bc a7 33 6d ba 71 c2 6d 3f
       -0.012041103 -0.010046044 -0.00090485293 0.9287482
000010 24 df 8a c0 e6 90 7c be 00 00 00 00 3c 33 ad bf
       -4.339739 -0.2466465 0.0 -1.353126
000020 b3 22 d8 ba 1a 96 82 be 5c 3f cd bd 30 1b 59 bb
       -0.0016489833 -0.25505143 -0.100218505 -0.0033127777
000030 a7 f9 06 40 8d d8 25 bc 0f 22 12 3b 46 9b df bc
       2.1089876 -0.0101224305 0.0022298133 -0.02729572
000040 00 00 00 00 26 2e 71 bc 54 46 22 40 d3 ff a7 bc
       0.0 -0.014720475 2.5355425 -0.020507729
000050 00 00 00 00 0a 35 73 bc 2c 41 96 be e9 ac fd 3a
       0.0 -0.0148441885 -0.29346597 0.0019353899
000060 a9 7c 95 be df 33 01 bc 22 64 9a bc e9 e3 f4 bc
       -0.2919667 -0.007885902 -0.018846575 -0.029893832
000070 73 14 82 bb ad 92 47 bd 7d 36 fc bc 04 d1 5f bc
       -0.003969723 -0.048723865 -0.0307877 -0.013660673
000080 0c 60 63 bf 20 0d 05 bc 6d 5c 95 be ce 7e 95 bc
       -0.8881843 -0.008120805 -0.29172078 -0.018248942
000090 a3 ab 8d bc ab ee b5 bd 37 1f 05 bd 79 1f 9a bc
       -0.017293757 -0.08883413 -0.032500472 -0.018813835
0000a0 6f 81 62 3e 5d 95 1a ba fd 30 9d 3c 7b bd 37 bf
       0.22119687 -0.00058968907 0.019188398 -0.717735
0000b0 08 72 ee 3c 79 a1 a9 bc d2 1d f3 38 3b 71 f9 3e
       0.029107109 -0.020706879 0.000115926974 0.487192
0000c0 e0 6e e1 bb 5a 91 86 3e a5 88 31 3f e8 a2 41 bc
       -0.0068796724 0.2628277 0.6934913 -0.011818625
0000d0 97 16 cd bd fd 8f a3 bf dc 78 51 bc 10 84 d3 bb
       -0.10014074 -1.2778317 -0.012785163 -0.006454952
0000e0 42 c1 45 bc f6 e1 ff 3e a4 10 b9 c0 18 fd 11 bb
       -0.012070002 0.49977082 -5.7832813 -0.00222761
0000f0 72 98 29 bf 6e c9 cf 3d eb 82 0c bc 11 52 c1 bb
       -0.6624824 0.101458415 -0.008576135 -0.0058996757
000100 d6 66 cf bb c0 4b 75 bc 5a a8 49 3a dc e7 05 be
       -0.0063293977 -0.0149716735 0.0007692628 -0.13076729
000110 b9 3f 40 3b c2 82 30 bc 5b 34 f3 bc ff d3 62 bc
       0.0029334857 -0.010773363 -0.029688051 -0.013844489
000120 00 00 00 00 02 b6 9b bc 91 cc f7 be e5 2d df bc
       0.0 -0.019007687 -0.4839826 -0.027243564
000130 bb 52 bf bd e9 88 7d bc 37 21 ae bc 21 ec e4 bb
       -0.093419515 -0.015474536 -0.021256072 -0.0069861566
000140 18 1b 7c bc 32 f4 d7 b9 6a 03 88 bb 1f e9 79 bd
       -0.015387319 -0.00041189935 -0.0041507976 -0.061013337
000150 00 00 00 00 01 b1 fa bb 00 00 00 00 c2 d8 e9 bc
       0.0 -0.007650495 0.0 -0.028545741
000160 bd b1 83 3f 36 e7 75 bc d1 20 f9 3b 71 01 87 3f
       1.0288616 -0.015008738 0.007602789 1.0547315
000170 00 00 00 00 b7 21 1d bf 8b c9 46 bc 4c e9 13 bd
       0.0 -0.6137957 -0.0121330125 -0.03611116
000180 89 ad 27 c1 13 11 9d bc 92 cb 84 bc 0b b9 55 bc
       -10.479867 -0.01917318 -0.016210351 -0.013044606
000190 00 00 00 00 00 00 00 00 7e 49 95 bf be 09 42 bc
       0.0 0.0 -1.1663053 -0.011843143
0001a0 a9 70 b7 bc 00 00 00 00 b2 07 1f bc 38 70 d6 bc
       -0.022392588 0.0 -0.009706425 -0.026176557
0001b0 ab fc 23 bc 78 67 4f bb 80 36 e8 3e 67 3e 39 bb
       -0.010008971 -0.0031647366 0.4535408 -0.0028265954
0001c0 ff 05 18 bc 57 be f2 bc 00 00 00 00 00 00 00 00
       -0.009278773 -0.029631777 0.0 0.0
0001d0 c0 70 19 bc 86 f9 ae bb 6d 07 52 bb 08 6c a4 bb
       -0.009365261 -0.005339804 -0.0032047883 -0.005017761
0001e0 6b 3b ee bc 7c 04 33 bc a0 9c 1a bc f7 1b 48 40
       -0.029081067 -0.010926362 -0.009436756 3.1267068
0001f0 e3 e1 0e 39 cb d2 df bb 88 e7 8a 3b 16 f1 3a bd
       0.00013626325 -0.0068305484 0.0042390265 -0.045640074
000200 25 ef cf ba 47 cf 2c bc 9c 7f a8 3e a6 71 ee 3a
       -0.0015864117 -0.010547466 0.32909858 0.0018191829
000210 00 00 00 00 2c cf f1 bc 65 fd 13 bd 93 6b 1f bb
       0.0 -0.029517733 -0.036130328 -0.0024325594
000220 c5 f9 dc bb a9 8d ac bc 7f 46 b9 be 7b 4f d2 bd
       -0.006743642 -0.021063643 -0.36186597 -0.10269066
000230 18 32 a3 bc 10 65 53 bb d8 19 17 be 0d c6 88 bd
       -0.019921347 -0.0032256283 -0.14755952 -0.066784
000240 47 8c 07 bd 6f 3b d1 3d 34 ec 67 bc 6f 19 7c 3f
       -0.033092763 0.10216414 -0.014155436 0.9847631
000250 98 32 aa bc 53 b5 81 bb 30 a5 a9 3b 00 00 00 00
       -0.020776078 -0.003958383 0.0051771626 0.0
000260 a1 6a f0 ba ba 8d 6d bb cb 8b 59 bd a5 3d 46 bc
       -0.0018342325 -0.0036247806 -0.053111833 -0.012099658
000270 8c 02 f6 bc 18 34 e4 bc 6b ab 01 3b 00 00 00 00
       -0.030030511 -0.027856871 0.001978601 0.0
000280 00 00 00 00 ba 95 92 bc 06 5d 9f be 00 00 00 00
       0.0 -0.01789366 -0.3112566 0.0
000290 24 01 64 bd 15 23 e4 bb 6d a5 8b 3e fa 4a e3 3a
       -0.05566515 -0.00696219 0.27274647 0.001734107
0002a0 00 9f 72 bc 77 38 5a bf 7f fe 88 bd 9e 70 1d bc
       -0.014808416 -0.8524241 -0.06689166 -0.00960937
0002b0 26 f6 fd bc 00 00 00 00 c2 86 a3 bb 1b 2a b0 bc
       -0.031001162 0.0 -0.0049904296 -0.021504452
0002c0 bc d8 1f bc d9 52 ac bc 0f 2f 08 bc 27 95 cd bc
       -0.009756263 -0.021035599 -0.008312001 -0.025095535
0002d0 5e 11 b0 ba 7c d3 a9 bb ae 46 c0 40 79 1e 3d 3f
       -0.001343291 -0.0051826816 6.008628 0.7387462
0002e0 bc 62 6f 3a cb 2b 19 bb cd 53 57 3e 77 f6 9c bb
       0.0009131839 -0.002337205 0.21028061 -0.004790123
0002f0 e6 17 ea bd 1b d0 42 be 35 ad 08 bc 6e 41 da be
       -0.114303395 -0.19024698 -0.008342077 -0.42628044
000300 cb ef 93 bc 00 00 00 00 81 0a c8 3c 73 a3 75 3d
       -0.018058678 0.0 0.024419071 0.05997033
000310 00 00 00 00 52 ff 09 40 3a 9f c0 be 67 58 21 bb
       0.0 2.1562085 -0.3762148 -0.0024619342
000320 d0 37 29 bc 41 06 ee 3f a8 48 ce bb 5c 93 70 3c
       -0.010328248 1.8595659 -0.0062952824 0.014683571
000330 dc 3c 12 bb d5 7d 1b bc 38 95 46 bc 49 ff 08 bd
       -0.0022314107 -0.00949045 -0.012120537 -0.033446584
000340 75 7f f6 3b ef 43 1d 3f 5a f7 01 bb c5 3c 26 bc
       0.0075225183 0.61431783 -0.001983127 -0.0101463245
000350 b2 20 3c bc 7e 65 8c 3c 12 c9 9a bc 1c 18 00 bd
       -0.011482405 0.017138239 -0.018894706 -0.031272992
000360 d8 76 7b bc 82 01 db be 38 9d 60 bc 00 51 61 3d
       -0.015348159 -0.42774588 -0.013709359 0.05500889
000370 b4 f2 bb 3f 23 a9 e9 bb 00 00 00 00 54 85 fe ba
       1.4683442 -0.0071307584 0.0 -0.0019418397
000380 8f b8 40 bc 00 00 00 00 7e db a9 bc 6d 9a 2f bd
       -0.011762752 0.0 -0.020734545 -0.04287188
000390 2a 42 01 bc a4 ad ae bd 5b bf ea bb 0c da ba bc
       -0.00788931 -0.08529213 -0.0071639246 -0.022809051
0003a0 ca f9 b0 bb 45 4e 82 bc cd 04 fb bc cb fe 21 bc
       -0.005400871 -0.015906462 -0.030641938 -0.0098874075
0003b0 36 00 1a 3d 80 10 49 bc 92 ab 64 bc 0b 6e 0f bb
       0.037597857 -0.012272 -0.013956921 -0.002188566
0003c0 64 a0 ea bc ea 9b 0b bc ec 5c cf bc 9c c3 29 be
       -0.028640933 -0.0085210595 -0.025312863 -0.16578525
0003d0 00 00 00 00 22 84 84 b9 66 86 4c bd f1 ba c0 3f
       0.0 -0.0002527545 -0.04993286 1.505705
0003e0 c7 83 8c c0 c6 3a 46 bc f6 6a 6f bc e5 13 50 bc
       -4.391086 -0.012098974 -0.014612904 -0.012700056
0003f0 e0 2f 9f bc 63 44 45 3b d1 2c a3 3c 00 00 00 00
       -0.019432008 0.0030100576 0.019918831 0.0

sequential/dense/MatMul f4 [400, 120]
000000 e8 56 e0 bd c0 9a 13 be 15 02 f3 bc b4 a9 81 3d
       -0.10954076 -0.14414501 -0.029664079 0.063311964
000010 51 9d 22 be b8 23 28 bd 66 b5 20 bd c3 2d e9 bd
       -0.15880324 -0.04104969 -0.039235495 -0.113856815
000020 35 f9 05 3d a0 89 37 bd 83 12 07 bb e4 3c 1b 3d
       0.032708365 -0.044808984 -0.00206104 0.037899867
000030 22 5a aa bd 4a 15 19 be 60 cd a3 bc ca 6d d5 bd
       -0.08317973 -0.14949527 -0.019995391 -0.10421331
000040 3c ce bd bd fe 80 3f bd 69 56 be 3c 8c 5b 2f be
       -0.09267852 -0.046753876 0.023234563 -0.17124766
000050 6f 04 1d be 20 e4 88 3d 07 b7 0c 3c 68 a2 a4 bd
       -0.15333723 0.066841364 0.008588559 -0.08038789
000060 76 fa 21 3d 37 5a db 3c 69 59 5d bd f2 2f 5b bd
       0.0395455 0.026776416 -0.054040346 -0.05351252
000070 ec 83 59 3d fe 3a ff bc eb d5 98 bd c0 5a 36 be
       0.053104326 -0.03115606 -0.074626766 -0.17808056
000080 7f 55 ea bd bd 13 89 bd 7d ee 04 be 7c e2 19 be
       -0.11442088 -0.06693218 -0.12981601 -0.15027803
000090 c6 d7 0b 3e 8e 77 08 3c dd 79 f5 bd 7f 01 38 3d
       0.1365653 0.008329285 -0.11986134 0.0449233
0000a0 20 15 95 bd 16 8d e6 3c c3 7b 18 3d 1c e6 92 3d
       -0.0727942 0.028143447 0.037227403 0.07172796
0000b0 c6 b5 09 be 9a 10 d9 bd 63 34 b5 3d d4 f2 a2 bc
       -0.13448247 -0.105988696 0.088478826 -0.01989118
0000c0 6d 9a 6e bd e1 86 81 3c 55 7b e4 bd b9 db a6 3c
       -0.05825274 0.015811386 -0.11156336 0.020368444
0000d0 47 30 25 3d c3 3e cc bc 5f 2c ba 3d 1f c1 b5 3b
       0.040329244 -0.02493227 0.09090494 0.0055467035
0000e0 7a 0b 54 3d 49 0a 9b ba df bc c8 bb 10 f4 18 bd
       0.051768757 -0.0011828627 -0.006126031 -0.03734213
0000f0 96 34 3d 3d 15 33 54 bd 7f 46 10 be 1e 86 bb 3d
       0.046192728 -0.051806528 -0.14089392 0.0915644
000100 3a dd 8b bc ae 5a 23 3d 95 df bc bd 58 87 a3 bd
       -0.017073262 0.0398814 -0.092223324 -0.07984799
000110 7c b2 c6 bc 00 f8 86 bc ab e2 82 3e e0 78 58 be
       -0.02425503 -0.016475677 0.2556356 -0.2113986
000120 cd 08 21 be c8 6e 5b 3e d7 65 ec bd 82 a3 6d bd
       -0.15726013 0.21428978 -0.11542862 -0.05801726
000130 c4 ab bb bd 84 77 21 be 02 99 3c 3d 9e 4b 27 bc
       -0.09163621 -0.15768248 0.046044357 -0.0102109
000140 79 de 21 bc 7e 5d 00 3d ee df 20 bd b7 4e 07 3c
       -0.009879702 0.03133916 -0.039276056 0.008258513
000150 77 ac 1d be c1 cf 8e bd f2 e4 eb 3d 8e 0b ef bd
       -0.15397821 -0.0697322 0.11518277 -0.11672126
000160 25 5a 40 be 9c e8 58 3e de 20 39 3e 58 e9 29 be
       -0.18784387 0.21182483 0.18078944 -0.1659292
000170 66 d2 22 be e0 c0 11 bd 08 51 a0 bd 0e ad 95 3d
       -0.15900573 -0.03558433 -0.078279555 0.07308398
000180 09 fb 19 bd 20 d9 be bc b8 ab 28 3e 78 ef 10 be
       -0.03759292 -0.023296893 0.16471756 -0.1415385
000190 6c af c7 bd 71 a9 6f 3e 40 a6 85 be 5f 34 d7 3d
       -0.09750256 0.2340448 -0.261034 0.10508036
0001a0 1e a4 d5 bb c0 33 68 be 2a 7a aa be a6 c5 2e 3e
       -0.0065198084 -0.22675991 -0.3329633 0.17067584
0001b0 4a 64 d9 3d 3f 4c 83 bd 99 de 40 bd 94 73 bf 3d
       0.10614832 -0.06411027 -0.047087286 0.09348217
0001c0 08 33 14 3d 17 d3 ad 3d c7 28 8e be 70 62 09 3e
       0.03618148 0.08487528 -0.27765486 0.13416457
0001d0 19 e4 83 3d ea a8 68 be ce 04 11 3e b1 36 2c 3e
       0.064399906 -0.22720686 0.14161989 0.16817738
0001e0 c0 91 6e be da 1e 09 be 16 32 26 bd bd f8 10 be
       -0.23297787 -0.13390675 -0.04057511 -0.14157386
0001f0 26 59 32 be 5a 64 a7 bc e3 b2 63 bd 1b f1 6b bd
       -0.1741682 -0.020433594 -0.05559052 -0.057602983
000200 9b af af 3c 14 a6 90 bd 02 53 7d bd e5 5e 5e 3c
       0.02144604 -0.07062927 -0.06184674 0.013572429
000210 19 01 b7 bd 0d 57 75 3d 9e 1b 27 3d a9 13 0e be
       -0.08935756 0.05989747 0.040797822 -0.13874687
000220 93 7d 23 be e6 e8 b5 bb 60 49 e8 bd 88 4e de bc
       -0.15965872 -0.0055514453 -0.1134212 -0.027137056
000230 22 47 fa 3c b9 29 6f be c3 1b df 3d 1c 44 66 bd
       0.030551497 -0.2335576 0.10893967 -0.056217298
000240 b8 52 cf bd 3d 75 14 3e aa 3f a1 bd af 63 47 be
       -0.10123199 0.14497848 -0.07873471 -0.1947162
000250 ae e9 64 3d 2f 9b 59 bd b7 5b fd bd 54 45 0a 3e
       0.055886917 -0.05312651 -0.12371009 0.13503009
000260 23 16 3b be 43 e2 6d bd e9 a5 c8 3d 6e 57 80 be
       -0.18270163 -0.058077108 0.0979727 -0.25066704
000270 d1 ee da 3d 27 23 a7 3c 9d e7 5a be 74 c4 dc 3c
       0.10690082 0.020402504 -0.21377416 0.026949145
000280 67 e9 e0 bd 2b 0e 70 3d 6d 83 8a bc 61 e1 cf bd
       -0.10982018 0.05860726 -0.016908372 -0.101504095
000290 1f 70 86 bc 91 ff 1d be 27 14 db bd 43 91 72 bc
       -0.016410885 -0.15429522 -0.10697203 -0.014805141
0002a0 50 1c 50 bd 58 ba df bc 06 29 bf 3c a7 02 4d be
       -0.05080825 -0.027310535 0.023334991 -0.20020543
0002b0 1b d5 02 be d8 10 29 be d0 b9 a5 bd 2c cf 0d bd
       -0.12776606 -0.16510332 -0.080920815 -0.034621403
0002c0 54 33 15 be fb bd 6f 3d 21 94 d9 bd ec f1 42 be
       -0.14570361 0.05853079 -0.106239565 -0.19037598
0002d0 54 4d a1 bc 89 db 78 3d c6 de 44 3e 68 de 2c be
       -0.019690193 0.06075624 0.19225606 -0.16881716
0002e0 62 49 19 3e 5d bf 23 bd 6a cd 7e be b5 4e 62 3e
       0.149694 -0.03997742 -0.24883047 0.22100337
0002f0 cc fd b3 bd ae 27 24 be be 35 1b bc 31 94 5a 3d
       -0.08788642 -0.16030762 -0.009473262 0.053363983
000300 6e fe 39 3d 0c 5f f4 3d fb 5c d3 bd f1 71 b2 bc
       0.04540866 0.11932191 -0.10320469 -0.021782847
000310 16 59 ab bd aa 45 10 3e c3 dd f5 3d 05 0e a4 3d
       -0.08366601 0.14089075 0.12005188 0.080104865
000320 a4 18 09 be 47 86 a4 bd b8 15 c6 3d 56 be 58 bd
       -0.13388306 -0.08033424 0.09672111 -0.052915893
000330 ea 77 c9 3d a3 01 7d 3c 27 0e 7b bd 79 73 6c 3e
       0.09837325 0.015442285 -0.061292794 0.23090924
000340 c8 04 89 bd 32 5f 1c be 38 8a 11 be d4 5b 16 3c
       -0.06690365 -0.15270689 -0.14212883 0.009177167
000350 be b0 60 3d cf 88 c3 3b b3 41 58 3e 50 4d 47 3e
       0.054856054 0.0059672366 0.21118812 0.19463086
000360 6a 2f 7f be 07 a7 52 be 06 31 ba bd d9 f0 0c 3e
       -0.24920431 -0.20571528 -0.09091382 0.13763751
000370 5a 89 b4 be e1 aa 3a be 93 39 86 3e 60 bb a2 be
       -0.3526104 -0.18229248 0.262158 -0.3178358
000380 76 bd a5 bc 96 7a 68 3e 6b 99 62 be 80 9c ae bd
       -0.020231944 0.22703013 -0.22128837 -0.08525944
000390 b9 60 01 be 57 63 30 3e 4d 49 a4 bd a5 08 eb 3c
       -0.12634553 0.17225395 -0.080217935 0.028690645
0003a0 ea 8d 8f bd ca 1b 23 3e 38 cf ad be 9d 6c 52 be
       -0.0700949 0.1592857 -0.33947158 -0.20549245
0003b0 25 3e bd 3e 06 46 2c 3c 99 4c 90 be c8 fc 89 3e
       0.36961475 0.010514742 -0.2818344 0.2695067
0003c0 f6 03 8b 3d b4 b4 7d 3c c5 70 67 bd e2 9c 85 bd
       0.06787865 0.0154849775 -0.05650403 -0.06524064
0003d0 df 35 56 bd 35 47 84 3c 22 f9 77 3c 81 05 17 3a
       -0.05229747 0.016147235 0.0151350815 0.0005761013
0003e0 7b e0 20 bd ce fa d1 bd 35 32 b1 3c 2d c7 80 3a
       -0.03927658 -0.10252915 0.021630386 0.0009824984
0003f0 ac 15 a3 bd ec 56 ac bd f3 74 6f 3d f7 45 a6 bd
       -0.07963118 -0.084150165 0.05846114 -0.081188135

sequential/dense_1/MatMul f4 [150, 400]
000000 9f cc df bc c0 d9 87 3d 85 a8 b1 3d e1 c3 97 3e
       -0.02731925 0.066333294 0.08674721 0.2964163
000010 82 93 a4 3e 31 14 b8 bc e9 01 9a bd c9 b8 c0 3e
       0.3214379 -0.022470566 -0.075198956 0.3764098
000020 d7 60 bb 3c 70 47 97 3d bf f5 1a be 63 2a 68 bd
       0.022873325 0.073866725 -0.15132807 -0.056681048
000030 9d 11 40 3e 6f bc 9c bd 5c f1 86 3d 38 c3 fa 3b
       0.18756719 -0.07653128 0.065890044 0.0076526664
000040 58 1a c7 3c e4 c4 c1 bd b1 62 0c bf 4a 02 cd bd
       0.024304554 -0.09461382 -0.5483809 -0.10010202
000050 94 5f 42 3d df 13 ca bd 94 6f 3f 3d c5 46 c2 ba
       0.04745443 -0.09867071 0.04673727 -0.0014822116
000060 56 e3 3c 3c 13 97 55 3c 79 9d 13 3d 44 46 a0 bd
       0.0115288105 0.013036507 0.03603885 -0.07825902
000070 d4 cd ca 3c ba a0 e2 ba 90 9f a9 3d 39 70 c0 3d
       0.02475635 -0.0017290332 0.08282387 0.09396405
000080 b9 cf 96 be ee e5 28 bd f7 fe ac 3a 51 72 8e bd
       -0.29455355 -0.041234903 0.0013198544 -0.06955398
000090 2f e5 06 bd fa d4 c9 bd 03 30 89 3d 09 25 d6 bd
       -0.03293341 -0.09855075 0.06698611 -0.10456283
0000a0 cb ce 49 3d bf e6 9c 3c ee 84 d4 3d 99 57 92 bd
       0.04926948 0.019152997 0.10376917 -0.07145614
0000b0 fb a5 47 bf 61 d2 a7 bd f7 89 ee 3c af c0 34 3f
       -0.7798764 -0.081944235 0.029118521 0.7060651
0000c0 05 66 a1 3d 9d b3 90 3e 0c 83 4e 3f 53 b8 b8 bc
       0.07880787 0.28262034 0.8066871 -0.02254883
0000d0 fd c3 9f 3d 40 dd 72 be 9f 11 e0 bc 21 bf 2f 3d
       0.07801054 -0.23717213 -0.027352152 0.042906884
0000e0 45 66 c9 3d 0d 69 81 3e ce a1 cb be 01 b2 37 bd
       0.098339595 0.2527546 -0.39771885 -0.044847492
0000f0 18 0a ed be 08 4b 90 bd 00 78 4c 3d 68 91 6b bd
       -0.46296763 -0.07045561 0.04991913 -0.057511717
000100 87 52 6a 3d e6 90 19 3d 96 75 ae bd 64 34 06 3d
       0.05720761 0.0374917 -0.085185215 0.032764807
000110 72 70 42 bd ce 03 84 3d 37 55 f3 bc 6d cf cd bb
       -0.047470517 0.06446038 -0.02970372 -0.0062808306
000120 14 6b 82 3c ea 76 3e bd 78 46 a7 be b9 2a 4e bd
       0.0159202 -0.046500124 -0.3267095 -0.050333712
000130 9c 56 64 be 02 86 14 bc 4d 80 cf bd 0a 4a 6f bd
       -0.22298664 -0.009065153 -0.10131893 -0.05842022
000140 a1 15 c8 bd ac 2d 9e 3d 84 74 43 bc 74 ef 35 bd
       -0.097697504 0.07723555 -0.011929635 -0.044417813
000150 80 e1 12 bc c2 fc 74 bd 1c 53 3b bd 34 6a c1 3c
       -0.008964896 -0.05981136 -0.045733556 0.023610212
000160 51 53 18 3f db d4 57 3c b8 67 bd bc a1 45 08 bf
       0.5950213 0.013173307 -0.023120746 -0.53231245
000170 38 63 d8 3c 55 e0 dc 3c c6 c4 96 bd 84 30 b1 3d
       0.026414499 0.026962439 -0.0736175 0.08651832
000180 9d 69 62 bf 0b b9 46 3d 3e 31 ba ba 19 b4 50 3d
       -0.88442403 0.048516314 -0.0014205349 0.050953005
000190 94 55 ed bc 6a 47 9d 3d a0 06 fd 3d e6 3e d7 bd
       -0.02897147 0.07679637 0.12354779 -0.10510044
0001a0 fc c1 8b bd 8e 5c b0 bd 9e 7b 5a bd 18 30 07 bd
       -0.06824109 -0.086114034 -0.053340547 -0.03300485
0001b0 81 cc cb bc ba 0d 1c bd eb 94 8b 3e bd cf c8 bd
       -0.024877788 -0.03809903 0.27262053 -0.09805248
0001c0 c7 25 dd 3b e2 ec 3c 3c a0 29 fe 3b 3c 1c 38 3d
       0.006748888 0.011531087 0.007756427 0.0449488
0001d0 56 1c a0 3d a5 24 22 3d 28 c6 9a 3d 34 b1 8c bd
       0.07817905 0.03958573 0.075573266 -0.06869736
0001e0 9a 1c ce bd 35 60 c9 bd 33 b6 23 3b d5 11 ad bc
       -0.10064049 -0.09832803 0.0024980425 -0.021126667
0001f0 ad 72 c9 3d 54 40 56 3c 62 35 70 3d bf 88 c3 3d
       0.09836326 0.01307686 0.05864466 0.095475666
000200 bb 4f c3 bd 0f 75 f7 b9 9c 1f 3e bf 0c 13 73 3c
       -0.09536692 -0.00047198727 -0.7426698 0.014836084
000210 00 d1 8b 39 4b 8a 44 bd a1 0a a6 bc 91 c6 a8 bd
       0.00026667863 -0.04798345 -0.02026874 -0.082409985
000220 93 86 41 3d 73 49 d5 3b eb af 78 bd fd c6 84 bd
       0.04724748 0.006509 -0.060714643 -0.064832665
000230 32 9b 76 3d 91 13 7c 3d 9e c0 a5 bf a0 23 39 3c
       0.0602066 0.061542097 -1.2949407 0.011299998
000240 45 65 03 bd 77 b9 d2 bc 2b b0 d8 3c ca e0 45 3f
       -0.032079 -0.025723202 0.026451191 0.77296126
000250 41 5b 4e bd 6e 16 03 bd 2c f9 a1 bd 2b 9c b5 bd
       -0.050379995 -0.032003812 -0.07908854 -0.08867677
000260 f7 23 9c bc c0 44 3d 3d ec 98 80 bd 2e 4c 5f 3d
       -0.019060118 0.046208143 -0.062791675 0.05451601
000270 87 46 c2 3d 5d 21 60 bc f0 4d a2 3d b4 06 1b 3d
       0.09486108 -0.013679829 0.07925022 0.03784819
000280 f7 3d d4 bd 50 4f 9e bd 5d d6 1f bb 07 bb d3 bd
       -0.10363381 -0.077299714 -0.0024389245 -0.10338407
000290 4f e2 dc 3d 5c 34 c1 3d dd 9b aa bc 08 31 b3 3d
       0.107853524 0.09433815 -0.020826275 0.08749586
0002a0 c0 a8 48 3d f6 f6 8a be 65 22 96 3c 1a 0e 7d 3d
       0.048989058 -0.2714154 0.018326947 0.061781026
0002b0 6f 9f 96 3d 00 7b 94 3a 88 d4 82 3d 7c 1d 2b bd
       0.07354628 0.0011328161 0.06388193 -0.041776165
0002c0 5a 9e 94 bb 5b 99 73 3d 9b 59 a4 bd 44 13 11 bd
       -0.0045354785 0.059472423 -0.080249034 -0.035418764
0002d0 0c 81 9b bd 20 87 24 3c e9 db 70 bf 7a 92 27 3f
       -0.07592973 0.010041982 -0.94085556 0.6545788
0002e0 3c 16 c2 3c 2e f6 d5 3c 89 57 c8 3e d7 96 9a 3d
       0.023692243 0.026118364 0.39129284 0.07548302
0002f0 76 44 95 bc 1c 9f d0 bc 63 09 50 bd 89 2c c1 bd
       -0.018221121 -0.025466494 -0.050790202 -0.094323225
000300 6e 13 0f bc a4 4b 08 bd f2 31 1f 3e f4 ac 41 be
       -0.00873266 -0.03327526 0.15546396 -0.18913633
000310 59 ca 47 bd 99 59 a3 3e 20 e8 10 c0 b6 bc 03 bd
       -0.04877696 0.31904295 -2.2641678 -0.03216239
000320 4c aa 8f bc 8d 1d 3b be 5c 34 79 3d fc d0 98 bd
       -0.017537259 -0.18272991 0.06084095 -0.074617356
000330 fe 3e bb bd 76 02 87 3d e9 92 10 bd fe f0 3c bd
       -0.09142874 0.06592266 -0.035296354 -0.046128266
000340 0a 87 c1 3d 0a 00 08 3e d2 47 96 bc b2 67 90 3c
       0.09449585 0.13281265 -0.018344793 0.01762757
000350 11 85 90 bd 18 63 a6 3c 87 7d 77 3d 2e d6 1d 3d
       -0.070566304 0.020310923 0.060422447 0.038534336
000360 15 13 cf bd 7a 8e cb bd ff 8f 59 3d c1 7e cd bc
       -0.101110615 -0.099392846 0.05311584 -0.025084855
000370 3a 5e 88 bf 7c 04 b0 3d 88 ab 35 3d 06 b8 5e 3d
       -1.0653756 0.08594605 0.044353038 0.054374717
000380 66 c1 ca bd f0 15 61 bc 5a 2a 10 bd 12 a1 9a 3d
       -0.09900169 -0.01373814 -0.03519664 0.07550253
000390 3e 90 d9 3d 33 d4 2d bd bd d7 b3 3d 80 d3 09 3d
       0.10623215 -0.042438697 0.08781383 0.033648968
0003a0 95 11 e4 3c 53 a3 9f bd 65 62 7f 3c e3 73 6d bc
       0.027840415 -0.077948235 0.015587424 -0.014492962
0003b0 8a 06 05 bc eb 3a e2 bc 5c 19 1d bc 87 6b 57 bc
       -0.008119235 -0.027615985 -0.009588566 -0.013148195
0003c0 43 0b d7 bd 81 0a 86 3d 3d 1a e5 bc 9d 99 c0 bd
       -0.10500195 0.06544972 -0.027966613 -0.094042994
0003d0 e8 26 be 3c 8d f8 d0 bd 35 77 3c 3c 10 22 49 be
       0.023211911 -0.10203657 0.011503031 -0.196419
0003e0 6c de 9b 3f 1e d0 be 3d 7f 46 8c 3d e9 d1 76 3a
       1.2177253 0.09317039 0.068493836 0.00094154343
0003f0 f8 e3 4d ba b3 c3 a0 bd 13 b2 bc bc f4 e4 8d 3c
       -0.00078540994 -0.07849827 -0.023034131 0.017321087

sequential/dense_2/MatMul f4 [8, 150]
000000 30 1e 15 3f d8 95 21 3f b6 1f a0 bd 2d e3 16 3e
       0.5824919 0.6311927 -0.078185484 0.14735098
000010 31 43 a1 3e 82 78 17 bf 35 b1 49 bf 87 c3 c7 be
       0.31496575 -0.59168255 -0.7878602 -0.39016363
000020 71 12 39 3f 2c 0d 76 3f d4 da 32 bf b0 40 9d 3e
       0.72293764 0.9611385 -0.69865155 0.30713415
000030 32 a1 f2 bf 6e ed 84 3f 88 d8 96 3f b4 b7 e0 bc
       -1.8955443 1.0384958 1.178483 -0.027431346
000040 d0 bd c7 be 8b ff 86 3e 53 d2 1c bf b4 35 15 3f
       -0.39012003 0.2636684 -0.6125843 0.5828507
000050 c0 81 a0 3e f0 5c 41 be ce a9 00 be 58 a1 c1 3f
       0.3134899 -0.18883109 -0.12564775 1.5127363
000060 5e b0 ba be 46 e7 16 3f 75 a4 37 3f fe 2c 06 3f
       -0.36462682 0.58946645 0.71735317 0.524124
000070 80 3c 21 3f 1a 09 98 3e e8 5a 18 be 1b 66 1b 3f
       0.6298294 0.29694444 -0.14878428 0.60702676
000080 c9 5d d9 bf 12 dc b9 3d 20 d7 34 bf 1a ea 21 3f
       -1.6981746 0.09075178 -0.70640755 0.63247836
000090 0e 5e 44 3f de 8d 2f 3f ea fe aa 3e 4f b2 56 3e
       0.76706016 0.6857585 0.3339761 0.20966457
0000a0 2a 12 81 be 29 bc 36 3f bf eb 41 3f bd 91 a2 bf
       -0.2520917 0.7138086 0.75750345 -1.2700726
0000b0 31 54 73 3f 01 81 c5 3d 07 bc 1e be 5d c6 8f be
       0.9505034 0.09643746 -0.15501414 -0.28081027
0000c0 08 33 b3 3e 7d 57 df be 70 f2 09 3e 33 79 6d bf
       0.3499987 -0.43621436 0.13471389 -0.9276306
0000d0 93 54 9b 3c 8a 59 ff 3d a7 9c 1d 3f 78 72 fb be
       0.018961227 0.1246825 0.6156716 -0.4911077
0000e0 22 f3 90 bc c6 4c 7f be 04 30 b2 bd 79 76 28 3f
       -0.01769406 -0.2493163 -0.087005645 0.65805775
0000f0 96 87 2b 3f 05 6d b4 3e 7d a1 a0 3e a1 fa 9c 3e
       0.6700376 0.35239425 0.31373206 0.30659965
000100 4e 5d 4c 3f 99 9e 34 3f 44 ac 20 bf 50 a3 ec 3e
       0.7982987 0.705545 -0.62762856 0.46218348
000110 42 5b 24 be be ae 2b bf a7 8c b5 3e fc 97 30 3e
       -0.16050437 -0.6706351 0.35458872 0.17245477
000120 58 79 45 bf 59 53 74 3e 9e e3 1c 3f 00 bf 27 3f
       -0.7713828 0.2385992 0.61284816 0.6552582
000130 09 0e c4 be 10 e4 13 bf f7 29 dc 3e 2d 63 44 be
       -0.38291958 -0.5776987 0.43000767 -0.19178458
000140 dc 94 2e 3f ba e5 23 3e 4a d4 5e bf e5 d5 4a bf
       0.6819589 0.16005602 -0.8704268 -0.7923263
000150 a2 fb b6 bf 8b 16 33 3e 1d fc d5 bf ec d4 86 3f
       -1.4295542 0.17489068 -1.6717564 1.0533729
000160 32 19 3a 3e 2a c4 d3 be 5a 35 04 bf af b7 00 3e
       0.18173674 -0.413606 -0.5164391 0.1257007
000170 28 dd f0 3e a0 99 60 3e 64 d9 c7 be 59 10 5f 3f
       0.4704373 0.21933603 -0.39033043 0.8713432
000180 cc 8d 9f be 76 17 22 3f 02 65 23 bf 25 fa 28 3f
       -0.3116287 0.6331705 -0.63826 0.6600669
000190 13 79 f5 3e d5 7d 45 bf 05 b8 04 bf 68 1b 72 bf
       0.47943935 -0.7714513 -0.5184329 -0.9457307
0001a0 ef bb ef bd e7 a1 a4 3f 64 4b 83 bf 8b 17 1c 3f
       -0.11705767 1.2861909 -1.0257382 0.60973424
0001b0 5c 58 1e bf ba 4e 8f bf 63 36 82 3f 24 fb ae 3f
       -0.61853576 -1.11959 1.0172848 1.3670392
0001c0 c6 40 94 bf 51 dd 64 3e 25 2e 7c 3e 01 1c 9b 3f
       -1.1582267 0.2235005 0.24626978 1.2117921
0001d0 a9 7e ef 3e ee d4 94 3f 90 8c 5d 3f 96 11 be 3f
       0.46776322 1.1627481 0.86542606 1.4849117
0001e0 53 f6 c4 bd 02 8f 70 3d 8d a6 7d 3e fb 37 2f 3f
       -0.09617295 0.058730133 0.24770565 0.68444794
0001f0 cc 91 b3 3e 13 75 eb 3e 06 bf 42 3f 9f a6 90 3e
       0.35072172 0.45987758 0.7607273 0.28252122
000200 e4 77 24 bf 32 f1 18 3f 97 3c 00 3f 76 3b de 3e
       -0.6424544 0.59743035 0.5009245 0.4340474
000210 59 7f af be bc 34 40 3f 6c 05 3b bf 3b 75 b0 be
       -0.34276846 0.75080466 -0.7305515 -0.3446444
000220 a9 33 4f 3f 2f 2a 0d bf 5c be e0 be f2 fa 6d 3f
       0.809382 -0.5514249 -0.43895233 0.9296104
000230 bd 57 75 3e 46 f0 98 3d 92 00 40 3f fe e1 48 3f
       0.23959251 0.074677035 0.7500087 0.78469837
000240 9b 6b 69 3d 54 a3 2f bf 07 d1 48 be b5 28 8e 3d
       0.056987386 -0.68608594 -0.19610988 0.06941358
000250 bd 59 bf be e3 61 38 be 72 b1 85 bf 9b fa ed be
       -0.37373152 -0.18006091 -1.0444777 -0.4648026
000260 83 67 84 3f 34 ec 62 bf fe 33 8b be ad 21 56 3f
       1.0344089 -0.8864167 -0.27188104 0.83645135
000270 0f 35 45 bf 26 da ec be 25 d0 f9 be a6 d0 7d 3f
       -0.77034086 -0.46260184 -0.48791614 0.991465
000280 ce 79 b7 3d 7c a9 67 bf 5f be bf 3f 16 97 13 3f
       0.08958779 -0.9049299 1.4979972 0.57652414
000290 5a fc 9e 3e 41 fd 6e bf 33 c3 8e 3f ce ab 7d be
       0.31051904 -0.93355185 1.115332 -0.2477257
0002a0 60 2c 41 3e 2f 9e e4 3e df 3a 99 be 06 8d 3c bf
       0.18864584 0.44651935 -0.29927728 -0.73652685
0002b0 18 e9 2a 3e a7 93 15 bf 4a f4 96 3e ac c3 ec bb
       0.1669048 -0.58428425 0.29483253 -0.0072254743
0002c0 f7 ed 1b 3f bb 44 71 3e d6 88 20 bf ba 08 11 3f
       0.6090998 0.23561375 -0.62708795 0.5665394
0002d0 06 8a 66 3d 7b f8 f6 be 8c 74 ed 3e 0f a9 b4 be
       0.056283973 -0.4823645 0.4637798 -0.3528523
0002e0 98 d4 57 3d 55 3b f0 be d6 43 4d 3f 71 22 33 bf
       0.05269298 -0.46920267 0.80181634 -0.6997443
0002f0 4b 1f 8d 3f 22 02 35 bf b5 8c 46 3f 84 27 95 3e
       1.1025175 -0.7070638 0.7755845 0.2913171
000300 a4 e4 62 bf 29 78 c2 be fc e6 12 3f 58 08 aa be
       -0.8863013 -0.379823 0.57383704 -0.3320949
000310 d7 23 09 3f 92 0f 21 be 3a 2b 66 3f 6c 2c 36 bf
       0.5357031 -0.15728596 0.8990971 -0.7116153
000320 27 3d cf 3c 6d 9f a2 3e 67 51 a8 be 34 37 84 3f
       0.025297714 0.31762257 -0.32874605 1.0329347
000330 4b 32 db be 7f b8 a9 bc 19 73 31 3f b3 30 4a 3f
       -0.42811808 -0.020717857 0.6931625 0.7898056
000340 07 a7 24 3e 7f a7 b9 3f 73 45 ca be 43 37 0f 3f
       0.16079341 1.4504241 -0.3950611 0.559437
000350 cd 5f 54 3e aa 9f ed 3d ca 49 d4 3e 81 17 1c be
       0.2073967 0.11602719 0.41462547 -0.15243341
000360 fc c3 8c 3c 7b 63 f6 be e1 76 f8 be bb 2e 3d bf
       0.017183296 -0.48122773 -0.48528197 -0.7389943
000370 9e bc 3a 3f 1a af a3 3e 61 5b 0e be 9e 0d 2d bf
       0.72944057 0.3196953 -0.13902046 -0.67598903
000380 54 a1 85 3f 35 af 8f 3f 9b 94 95 be 21 ed 6a 3f
       1.0439858 1.1225344 -0.2921494 0.9176808
000390 f2 33 a6 bf 53 f1 8e bf 41 6c 1e 3f a5 13 26 3e
       -1.2984602 -1.1167396 0.6188393 0.16218431
0003a0 e9 ba 3e 3f 29 05 0c 3e 30 81 1c 3f fe df e4 be
       0.7450395 0.13673843 0.61134624 -0.44702142
0003b0 28 4d 87 3e ad aa 86 be 6f 15 d4 3e d9 c4 ed 3e
       0.26426053 -0.2630209 0.41422603 0.46439245
0003c0 ae 2d e8 be 4b 66 62 bd 95 de 52 3f 24 cf 8e 3e
       -0.4534735 -0.055273335 0.82370883 0.2789241
0003d0 52 1a be be 6e b9 98 be cd 4b c7 bf 58 df a0 bf
       -0.37129456 -0.29828972 -1.5570008 -1.2568159
0003e0 5f ae 46 3e b9 6b 8c 3f 26 f7 30 be 28 73 85 3f
       0.19402455 1.0970374 -0.1728178 1.0425768
0003f0 bf 52 bb bf 69 73 97 3f d7 85 15 bf 8c 31 f9 3c
       -1.4634627 1.1832095 -0.5840735 0.030419134
