ddu_orig_layer2.tflite (tflite, 440520 bytes, 6 tensors)

sequential/dense_1/BiasAdd/ReadVariableOp f4 [150]
0	0xbfa13841	-1.2595292
1	0x4072ddf7	3.7947977
2	0xbd9424e9	-0.072336026
3	0xbc3a9868	-0.011388876
4	0xbfd4c1c3	-1.6621631
5	0xbf4deb88	-0.8043752
6	0xbfab4bec	-1.3382545
7	0xbeb421a3	-0.35181913
8	0xbe856c1e	-0.2605905
9	0x3f9a93ba	1.2076333
10	0xbed107e5	-0.40826336
11	0x3e96b9cd	0.2943863
12	0xbf72c9af	-0.94838995
13	0xbd027278	-0.031847447
14	0xbf5c2993	-0.8600094
15	0xbf8b5abe	-1.0887067
16	0xbe14b8df	-0.14523648
17	0xbf48e52d	-0.78474694
18	0xc03b3efe	-2.9257197
19	0x3ea5879c	0.32330024
20	0x3fa639f4	1.2986436
21	0xbfb24221	-1.3926431
22	0x3c13411c	0.008987691
23	0xbf1382c5	-0.57621413
24	0x3f9d4a09	1.2288219
25	0xbee638ad	-0.44965115
26	0xbf74c0fa	-0.9560696
27	0xbe7a3cf0	-0.24437308
28	0xbec06446	-0.37576503
29	0xbe36d58b	-0.17854898
30	0xbeb9f90f	-0.3632283
31	0x3ec494b3	0.38394699
32	0xc014dd61	-2.326012
33	0x3f71fa69	0.9452272
34	0x4023dc4d	2.560321
35	0xbed1f71a	-0.41008836
36	0xbfac9234	-1.3482118
37	0xbfa8cef9	-1.3188163
38	0xbf73869b	-0.95127267
39	0xc0169b34	-2.3532228
40	0x3ea04b78	0.31307578
41	0xbf4f6ba8	-0.81023645
42	0xbe0d4ba2	-0.13798383
43	0x3cc70eec	0.024299107
44	0xc03364a6	-2.803018
45	0x3e57ff00	0.21093369
46	0xbf4cf602	-0.8006288
47	0xbf66e123	-0.9018728
48	0xbfa88b6d	-1.3167549
49	0x3e8427a2	0.25811487
50	0xc0236777	-2.55319
51	0xbd840a20	-0.06447244
52	0xbd948a55	-0.07252947
53	0xbf2b8ddd	-0.6701334
54	0xbfbb1311	-1.4615194
55	0xbe187068	-0.1488663
56	0xbeb394f8	-0.35074592
57	0xbf8053e4	-1.0025601
58	0x3f494bca	0.7863127
59	0xbf661e4d	-0.89889985
60	0xbfa43280	-1.2827911
61	0x3ff9b081	1.950699
62	0xbe858653	-0.26079044
63	0xc053f546	-3.3118453
64	0xbf3bed1d	-0.7340868
65	0x3e7fb5f2	0.2497175
66	0x3e10718d	0.14105816
67	0x3e0e6807	0.13906871
68	0xbe2f0f93	-0.17095785
69	0xbfcd6545	-1.604653
70	0x4011e556	2.2796226
71	0xbfd8221c	-1.6885409
72	0xbf4b8454	-0.7949879
73	0xbcba3273	-0.022729134
74	0x40731c68	3.7986088
75	0xbde12a79	-0.10994429
76	0xc023397a	-2.550383
77	0xbdf98dc4	-0.12185243
78	0xbfc01fe4	-1.5009732
79	0x3efe536c	0.4967302
80	0xbef9ed89	-0.48814037
81	0xbe0da163	-0.13831095
82	0x3ee61c89	0.44943646
83	0x3f5964e8	0.84919596
84	0xbfdc5c91	-1.7215749
85	0xbf93adfa	-1.1537468
86	0x3f1e084f	0.6173143
87	0xbf8db40b	-1.107057
88	0xbf24afd2	-0.6433078
89	0xbee74d2c	-0.45176065
90	0x4098280e	4.7548895
91	0xbf51738a	-0.81816924
92	0xbf027347	-0.5095715
93	0xc05a60db	-3.4121616
94	0xbe08d635	-0.13362963
95	0xbddb2ab8	-0.10701507
96	0x3e24121f	0.16022538
97	0x39668000	0.00021982193
98	0x3e8caa98	0.27473903
99	0xbe3d8d98	-0.18511045
100	0x3f4a76aa	0.79087317
101	0xc032e93b	-2.7954853
102	0x3fbe5699	1.4870178
103	0xbfa469c8	-1.2844782
104	0x40892c88	4.286686
105	0xbf717ff6	-0.9433588
106	0xc00fc980	-2.2466736
107	0x3fb23a36	1.3924015
108	0xbf9f5eb1	-1.2450773
109	0xbebdad16	-0.37046117
110	0x3f291029	0.66040283
111	0xbfbd0966	-1.4768493
112	0xbe8005e6	-0.250045
113	0xc00eb433	-2.2297485
114	0x3f17be66	0.592749
115	0x3fb0f388	1.382432
116	0xbf0bfcf1	-0.5468283
117	0xbceb426f	-0.028718201
118	0x3ffc9a99	1.973468
119	0xbec14241	-0.3774586
120	0x3f22264f	0.63339704
121	0xbeaf7f86	-0.3427698
122	0xbdfc2386	-0.12311463
123	0x3fa6d0d7	1.3032483
124	0xbf93a923	-1.1535991
125	0x3f2e85ac	0.6817272
126	0xbf0a1257	-0.53934234
127	0xbe980a11	-0.2969518
128	0xbfc66c2b	-1.550176
129	0xbff7b1b0	-1.9351101
130	0xbfa41185	-1.2817847
131	0x4001e40d	2.029544
132	0xbe34e7b1	-0.17666508
133	0xbe7c8a2c	-0.24662083
134	0x3e0ae2b0	0.13563037
135	0xbf2ae1cc	-0.6675079
136	0xbfeeb8fb	-1.8650202
137	0xbdd45d78	-0.1036939
138	0x3ebe8bb3	0.37215957
139	0x409662dc	4.699568
140	0xbf9c5cd3	-1.2215828
141	0x3f1e2d9f	0.6178836
142	0xbdc45854	-0.0958716
143	0xbf1dc527	-0.61628956
144	0x3e0294a7	0.12752019
145	0xbefc3127	-0.4925625
146	0xc017553d	-2.3645775
147	0xbf4efd3e	-0.80855167
148	0xc05dd865	-3.4663327
149	0x3efdae3c	0.49546993

sequential/dense_2/BiasAdd/ReadVariableOp f4 [7]
0	0x3f11bef9	0.56932026
1	0x3f32f44a	0.69904006
2	0xbf3af5aa	-0.73031104
3	0x3f77717c	0.9665754
4	0x3f2e4cd3	0.68085974
5	0xc06ff5d0	-3.7493782
6	0x3fc82b49	1.563821

sequential/dense/BiasAdd/ReadVariableOp f4 [400]
0	0x3eee9f56	0.4660594
1	0x3c7f092e	0.015566153
2	0xbe956472	-0.29178196
3	0xbb6ba42d	-0.003595601
4	0xbc4af77f	-0.012388109
5	0x3d44e429	0.048069153
6	0x00000000	0.0
7	0xbcbeb38b	-0.023278972
8	0x00000000	0.0
9	0x00000000	0.0
10	0xbab0c1b8	-0.0013485467
11	0xbecc8e1a	-0.39952165
12	0xbb39f09a	-0.002837217
13	0x3f08fe2d	0.5351284
14	0xbeb2db60	-0.34932995
15	0xbd54f3ae	-0.051990204
16	0xbc07282f	-0.008249327
17	0xbca50d93	-0.020148074
18	0x3eac6b5d	0.33675662
19	0xbfdbbb00	-1.7166443
20	0x00000000	0.0
21	0xbb33b752	-0.00274225
22	0xbc96abfe	-0.01839256
23	0xbfdfcf28	-1.7485094
24	0x3e24a886	0.16079912
25	0x3c43972c	0.011937898
26	0xbc11b9ac	-0.008894365
27	0xbd2ea2cd	-0.042635728
28	0xbc11ea45	-0.008905952
29	0x3d1be93a	0.03806422
30	0xbca3553c	-0.019938104
31	0xbd3a1b1d	-0.045436013
32	0xbec6d064	-0.38830864
33	0xbf1ee143	-0.6206247
34	0x3e33cb80	0.17558098
35	0xbf2560a3	-0.6460058
36	0xbce87ef2	-0.028380845
37	0xbc750068	-0.01495371
38	0xbc7265e0	-0.014794797
39	0x00000000	0.0
40	0x3b96902c	0.0045948233
41	0x00000000	0.0
42	0x3bb1bf14	0.0054243896
43	0xbcc09c68	-0.02351208
44	0xbda77b8f	-0.08177864
45	0xbb27f063	-0.002562546
46	0x00000000	0.0
47	0xbe0faa39	-0.14029779
48	0x00000000	0.0
49	0xbbf5c7c3	-0.00750062
50	0xbc8516d2	-0.016246233
51	0x3d667fd0	0.056274235
52	0xbc7641a6	-0.0150303
53	0xbcd3e5d6	-0.02586643
54	0x00000000	0.0
55	0xbccb1567	-0.024790479
56	0xbc5c66fd	-0.013452289
57	0xbcc46865	-0.02397556
58	0xbc8f0f23	-0.017463272
59	0xbc50edcf	-0.0127520105
60	0xbbb4a2ad	-0.0055125565
61	0xbc209abc	-0.009802517
62	0x3c8d4cc3	0.017248517
63	0xbdb8bea6	-0.09020738
64	0xbfea0840	-1.8283768
65	0xbc5029d6	-0.012705287
66	0xbd609a92	-0.05483491
67	0x3e017053	0.12640505
68	0x3beca2db	0.0072215623
69	0xbc34e52f	-0.01104097
70	0xbd8e0420	-0.069343805
71	0xbcab406e	-0.020904746
72	0x3d1f71d5	0.038926918
73	0x00000000	0.0
74	0xbdb6962f	-0.08915364
75	0xbc83bf1c	-0.016082339
76	0xbb9a1234	-0.004701877
77	0xbff476b2	-1.9098723
78	0xbc8ff4c7	-0.017572774
79	0xbc6d2d94	-0.014476199
80	0xbbc2c2ee	-0.0059436476
81	0xbc06af8f	-0.008220567
82	0xbdd647df	-0.10462927
83	0xbc18e3a4	-0.0093316175
84	0xbcef19f2	-0.029187176
85	0xbfa9c358	-1.3262739
86	0xbc34ee84	-0.011043195
87	0x3c83552d	0.016031826
88	0xbcb21813	-0.021739995
89	0xbf9d9837	-1.2312077
90	0x00000000	0.0
91	0x00000000	0.0
92	0x3c7740c7	0.015091128
93	0xbca09b1d	-0.019605214
94	0xbb8f4a4e	-0.0043728715
95	0x3f10c843	0.56555575
96	0x00000000	0.0
97	0x00000000	0.0
98	0x3c4ceaa7	0.012507117
99	0xbb77d301	-0.0037814977
100	0xbcd58c3f	-0.026067851
101	0x3c73c64b	0.01487882
102	0xbc9193c4	-0.017770655
103	0xbb791f83	-0.0038013167
104	0xbf0f8491	-0.56061655
105	0xbcf6802d	-0.030090416
106	0x00000000	0.0
107	0xbc0a2a32	-0.008432912
108	0xbc3f78c7	-0.01168651
109	0xbc352898	-0.011057042
110	0xbc9f5240	-0.0194484
111	0xbbed5f35	-0.0072440156
112	0xbc5fdb1b	-0.013663079
113	0xbb727120	-0.0036993697
114	0xbb10b933	-0.0022083044
115	0xbd5005fa	-0.05078695
116	0xbb26c328	-0.0025445912
117	0x3f2c0790	0.6719904
118	0xbcfe5b4b	-0.031049391
119	0xbcb7079d	-0.022342497
120	0xbdc19cbd	-0.094537236
121	0xbc150277	-0.009094826
122	0xbca79240	-0.02045548
123	0xbc3230da	-0.010875905
124	0xbc09c4e6	-0.008408761
125	0xbc078174	-0.00827061
126	0xbca91938	-0.020641908
127	0x3b1228da	0.0022302181
128	0xbc6fbf9a	-0.014633084
129	0xbcb746c4	-0.02237261
130	0xbe40076c	-0.18752831
131	0xbdd1cc3b	-0.10244032
132	0x3aa44dce	0.0012535395
133	0xbc67d98c	-0.014150988
134	0x3c103bb6	0.008803299
135	0xba677592	-0.000882947
136	0x00000000	0.0
137	0x00000000	0.0
138	0xbd1c78d8	-0.038201183
139	0x3c4227ec	0.011850338
140	0x3c0c7a2d	0.008574051
141	0xbe58e664	-0.21181637
142	0x00000000	0.0
143	0x00000000	0.0
144	0x38cfdb18	9.9113386e-05
145	0x00000000	0.0
146	0xbc9af4c7	-0.018915547
147	0xbc2ae8dc	-0.010431495
148	0xbb682234	-0.0035420777
149	0x00000000	0.0
150	0x3dc10c05	0.09426121
151	0xbcd02f8f	-0.025413303
152	0xbd046e84	-0.03233196
153	0xbd4e06b8	-0.050299376
154	0x00000000	0.0
155	0xbd2f503d	-0.04280113
156	0xbcba467c	-0.022738688
157	0xbbc5ccd0	-0.0060363784
158	0xbcb44ca8	-0.022009209
159	0xba46a715	-0.0007577998
160	0xbcdf3bf0	-0.02725026
161	0xbbca5b06	-0.0061754016
162	0x3b313974	0.0027042301
163	0x00000000	0.0
164	0xbd6d21c4	-0.05789353
165	0xbd460a49	-0.048349652
166	0xbb5db93f	-0.003383234
167	0xbd00e8d5	-0.031472046
168	0x3c72d523	0.014821324
169	0xbd101a50	-0.035181344
170	0xbb1481cf	-0.002266038
171	0xbf179414	-0.59210324
172	0xbd0bc419	-0.03412256
173	0xbafed78a	-0.0019442898
174	0xbc92ca1e	-0.017918643
175	0xbfcf371f	-1.6188697
176	0xbc1f5a6a	-0.009726146
177	0xbe869594	-0.26285994
178	0x3b20c410	0.0024530925
179	0xbc11dd21	-0.008902819
180	0xbc28695e	-0.010279028
181	0xbcb5f53a	-0.02221166
182	0x3ffe523d	1.9868847
183	0xbda3dbd6	-0.08000915
184	0xbc9b38b5	-0.018947938
185	0xbca2b4db	-0.01986163
186	0xbc959a7e	-0.018262144
187	0xbd368f9d	-0.044570554
188	0xbb414ae9	-0.0029494113
189	0xbcf0c433	-0.02939043
190	0x00000000	0.0
191	0xbc8afc9f	-0.016966162
192	0x00000000	0.0
193	0x00000000	0.0
194	0xbd24fa4c	-0.040277764
195	0x3d00070f	0.03125673
196	0x00000000	0.0
197	0xbd320136	-0.043458186
198	0x00000000	0.0
199	0xbbe38203	-0.006942989
200	0xbc3f5dcf	-0.011680081
201	0xbc8c9d63	-0.017164892
202	0x00000000	0.0
203	0x00000000	0.0
204	0xbd91e3f5	-0.071235575
205	0x3e8d8da9	0.2764714
206	0xba53cb71	-0.00080793264
207	0xbd6c5f47	-0.05770805
208	0xbc9da269	-0.019242482
209	0x3f032892	0.5123378
210	0xbc45356a	-0.012036661
211	0xbd112434	-0.035434917
212	0xbdfdcefe	-0.12392996
213	0xbc88d03d	-0.016700858
214	0xba23e2ff	-0.00062517816
215	0xbdd5e8b4	-0.10444775
216	0xbb32c3d9	-0.0027277379
217	0xbcaa3e1f	-0.020781575
218	0xbc9ca994	-0.01912383
219	0xbec9700b	-0.39343295
220	0x00000000	0.0
221	0xbec72160	-0.3889265
222	0xbc1d828c	-0.009613644
223	0xbdc30641	-0.09522677
224	0xbd5b4280	-0.053530216
225	0x3c076e6c	0.008266073
226	0x3da16206	0.078800246
227	0xbd467ee2	-0.04846085
228	0x00000000	0.0
229	0x3baf73f2	0.005354398
230	0x3bdad8a1	0.006678656
231	0xbd3224e4	-0.043492213
232	0xbdc6047c	-0.09668824
233	0xbec98655	-0.393603
234	0xbfa6b053	-1.302256
235	0xbd37ae73	-0.044844102
236	0xbc187e4e	-0.009307457
237	0x3c316447	0.010827131
238	0xbc87f167	-0.016594602
239	0xbf2e3db5	-0.6806291
240	0xbbec9a72	-0.0072205598
241	0xb98ad6aa	-0.00026481348
242	0xbb292036	-0.0025806553
243	0xbd46fc23	-0.0485803
244	0xbbdcf709	-0.006743316
245	0xbdbed93e	-0.093187794
246	0xbd3158f1	-0.04329771
247	0x00000000	0.0
248	0xbc4cd450	-0.012501791
249	0xbd1fe5cb	-0.039037507
250	0x00000000	0.0
251	0xbc4de768	-0.012567379
252	0xbd3880f0	-0.04504484
253	0x3bab3f5a	0.005226058
254	0xbd1a0e8b	-0.037611526
255	0x3d3a61b1	0.045503322

sequential/dense/MatMul f4 [400, 120]
0	0xbfd06589	-1.6280986
1	0xbf2655da	-0.6497475
2	0xbf3cf1c8	-0.7380643
3	0xbf799934	-0.97499394
4	0xbf8244a2	-1.0177195
5	0xbe05176d	-0.12997217
6	0x3ea29824	0.317567
7	0xbf7e75b0	-0.99398327
8	0xbe8af3d1	-0.27139142
9	0x3f00a1de	0.5024699
10	0xbd1dfb1d	-0.03856956
11	0xbc930731	-0.017947765
12	0xbdf93ce3	-0.12169816
13	0xbcf12e2e	-0.029440966
14	0x3ea3781d	0.31927577
15	0xbb919eae	-0.004443965
16	0xbe850b0a	-0.25984985
17	0xbe655f78	-0.223997
18	0xbdf9201a	-0.12164326
19	0x3e8fa95d	0.280589
20	0x3e8e187b	0.27753052
21	0xbf9eaf95	-1.2397333
22	0xbe3ba476	-0.18324456
23	0xbf264e4e	-0.64963233
24	0x3ca5b4b2	0.020227764
25	0xbf193560	-0.5984707
26	0x3f930842	1.1486895
27	0x3e345fc2	0.17614654
28	0xbf3608b0	-0.71107006
29	0x3f4eb7fc	0.8074949
30	0x3c978e8b	0.018500587
31	0xbf1a9c40	-0.6039467
32	0x3ec2051c	0.37894523
33	0xbf0afec9	-0.5429502
34	0x3eccac71	0.39975312
35	0x3e3fe7dd	0.18740793
36	0xbf13bad1	-0.57706934
37	0x3f41f74e	0.7576798
38	0xbedbacaa	-0.4290517
39	0x3e49d68e	0.19710752
40	0xbf3f683f	-0.7476844
41	0x3d8696a4	0.06571701
42	0xbdefcce7	-0.11709004
43	0xbf424e81	-0.7590104
44	0x3dec8ebc	0.11550662
45	0x3f20f7f7	0.62878364
46	0xbf375bce	-0.7162446
47	0xbf148687	-0.5801777
48	0xbf297c64	-0.6620543
49	0xbea650fe	-0.32483667
50	0x3e8e046c	0.2773775
51	0xbdfbbde4	-0.12292078
52	0xbf17804c	-0.5918014
53	0x3e42f44b	0.19038503
54	0x3e506dba	0.20354357
55	0xbef54292	-0.47902352
56	0x3f320728	0.6954217
57	0xbf02c6ab	-0.51084393
58	0x3eb71069	0.35754707
59	0xbdbb2327	-0.09137564
60	0xc012116f	-2.282314
61	0x3f3ba610	0.73300266
62	0xbe20ed42	-0.15715507
63	0x3fdd8adb	1.7308
64	0xbf560b3c	-0.8361089
65	0xbde6b1c4	-0.11264375
66	0xbd7a1adc	-0.06106077
67	0xbce724ec	-0.028215848
68	0xbed21cb3	-0.4103752
69	0x3fb99e53	1.4501442
70	0xbe9e7e82	-0.30955893
71	0x3f1e13ea	0.61749136
72	0x400d4d4b	2.2078426
73	0xbd297ce3	-0.041378867
74	0xbe89912a	-0.26868564
75	0x3fdbab57	1.7161664
76	0x3ea10a18	0.31453013
77	0x3f7d18d7	0.9886603
78	0xbfce02aa	-1.6094563
79	0x3f162704	0.58653283
80	0xc021f821	-2.5307696
81	0xbc6f9cb5	-0.014624764
82	0x3f195397	0.5989317
83	0x4000d981	2.0132754
84	0xbfbc4b1f	-1.4710425
85	0xbfce51d7	-1.6118726
86	0x3f90fd54	1.132731
87	0x40221539	2.5325453
88	0xbd22dd27	-0.03976169
89	0xbf2117d0	-0.6292696
90	0xbf8e0d53	-1.1097816
91	0x3f9ab8ba	1.2087624
92	0xbec42152	-0.3830667
93	0xc016e5c4	-2.3577738
94	0xbfb18473	-1.3868545
95	0x3f969663	1.1764644
96	0xbf8b7566	-1.0895202
97	0x3fdec313	1.7403282
98	0xbfa7433a	-1.3067391
99	0x3fe89045	1.8169028
100	0x400e3d6d	2.2224991
101	0x3e5b14a0	0.21394587
102	0xbf49bf99	-0.7880798
103	0xbf59a75d	-0.85021
104	0xbe1ff2ad	-0.15619917
105	0x3fe4d45f	1.787731
106	0x4050a97b	3.2603443
107	0xbfd009af	-1.6252955
108	0xc018018d	-2.3750947
109	0x4015a891	2.3384135
110	0xbd7107db	-0.058845382
111	0xbf5162a9	-0.8179117
112	0x3f0d3967	0.55165714
113	0x3fba15c2	1.453789
114	0x3f30d3b4	0.69073033
115	0x3f883d3b	1.0643686
116	0xbfbff44d	-1.499643
117	0x3ffc2304	1.9698186
118	0xc0089e46	-2.1346602
119	0xbef91859	-0.48651388
120	0xbe054575	-0.13014777
121	0xbe1559a4	-0.14584976
122	0xbdb8fc15	-0.09032456
123	0xbd139596	-0.03603133
124	0x3c490abd	0.012270627
125	0xbe3d6a12	-0.18497494
126	0xbcb0caee	-0.02158114
127	0xbd982010	-0.074279904
128	0x3cdf6a51	0.027272375
129	0xbd73a61c	-0.059484586
130	0xbe49608a	-0.19665733
131	0x3b49bb26	0.0030781715
132	0xbdc7085e	-0.09718393
133	0x3c4214a4	0.011845741
134	0xbd87ad8f	-0.066249005
135	0xbd92f879	-0.07176299
136	0xbd77e9ac	-0.06052558
137	0xbdbd07d5	-0.092300095
138	0xbd245c05	-0.04012682
139	0xbdbfb728	-0.09361106
140	0x3a7fab0e	0.0009752967
141	0x3e00982b	0.12558047
142	0x3c6ddd63	0.014518115
143	0xbda5d270	-0.080967784
144	0x3c60f715	0.013730784
145	0xbe01af84	-0.1266461
146	0xbdf1bede	-0.11803983
147	0x3da7babd	0.081899144
148	0xbd948a89	-0.07252986
149	0xbd10a916	-0.035317503
150	0x3d8b9fd5	0.06817595
151	0xbded9cd1	-0.11602176
152	0xbe02f116	-0.1278728
153	0xbd6fafbf	-0.058517214
154	0x3d55ebdf	0.052226897
155	0xbce48564	-0.027895637
156	0x3e09a1e9	0.1344067
157	0xbd828913	-0.06373801
158	0x3cdf0b99	0.02722721
159	0x3c69a7ef	0.01426123
160	0xbd2cb1da	-0.0421618
161	0x3c9a82dc	0.018861227
162	0xbd8ee306	-0.06976895
163	0x3dc377f3	0.09544363
164	0xbdeb7fbd	-0.114989735
165	0xbbb62415	-0.0055585005
166	0x3d342081	0.04397631
167	0xbdc1bc17	-0.094597034
168	0x3dc680f7	0.09692567
169	0x3d9c1908	0.07621962
170	0xbdd7ba4c	-0.1053358
171	0xbd319e98	-0.043364137
172	0xba890a20	-0.0010455288
173	0xbd342eee	-0.04399007
174	0xbdb3dc92	-0.08782305
175	0xbb6e7bc9	-0.00363897
176	0xbcd4a089	-0.025955455
177	0x3d50714d	0.050889302
178	0xbc87d792	-0.016582284
179	0xbb9b54d4	-0.004740337
180	0x3c88971e	0.01667362
181	0x3da9092c	0.082537025
182	0xbe33f743	-0.17574792
183	0xbcb784cf	-0.022402195
184	0x3dc3e08f	0.095643155
185	0x3c8fb228	0.017541006
186	0x3dd60158	0.10449475
187	0xbe134a63	-0.14383845
188	0xbd55f156	-0.05223211
189	0xbde4d9e4	-0.11174372
190	0xbd3b4d1c	-0.045727834
191	0x3d095dc5	0.03353669
192	0xbc8423cc	-0.01613035
193	0xbd0465e1	-0.03232372
194	0xbe02a149	-0.12756838
195	0x3d26286c	0.040565893
196	0x3c8e069f	0.017337142
197	0xbdf39a02	-0.11894609
198	0xbe17fb9d	-0.14842077
199	0xbdc9ad9a	-0.09847565
200	0x3db87c4b	0.09008082
201	0x3e3b5e6d	0.1829774
202	0xbd7eea9e	-0.062235467
203	0xbb378d51	-0.0028007815
204	0x3dca8e85	0.09890465
205	0xbd8de1f1	-0.069278605
206	0x3e4b5063	0.19854884
207	0xbde32b6f	-0.11092269
208	0x3cb25945	0.021771083
209	0x3e2606d8	0.16213548
210	0x3d84fb2a	0.06493218
211	0xbd55a332	-0.05215759
212	0x3d0b295b	0.033974987
213	0x3de466e4	0.11152437
214	0x3d145b24	0.03621973
215	0x3c7f1609	0.015569218
216	0x3e09edb2	0.1346958
217	0xbc71ec92	-0.014765875
218	0xbe56f380	-0.20991325
219	0xbd6235cf	-0.055227097
220	0xbe328457	-0.17433296
221	0x3db81aa9	0.0898946
222	0xbe2c2389	-0.1681043
223	0x3dd0124d	0.101597406
224	0x3db33194	0.08749691
225	0xbe2b51d0	-0.16730428
226	0x3dbebe6b	0.09313663
227	0x3c46e5e7	0.012139774
228	0x3cc61e35	0.024184326
229	0xbdb54535	-0.08851091
230	0x3e240787	0.16018496
231	0xbe3d5b05	-0.18491752
232	0x3d4d898d	0.050180007
233	0x3e38db20	0.1805234
234	0xbdaf03e6	-0.085456654
235	0x3da39541	0.07987452
236	0xbc3ecdaa	-0.011645714
237	0xbdead9d4	-0.11467329
238	0x3e0e3295	0.13886483
239	0x3e26692a	0.16251054
240	0x3d6731f6	0.05644413
241	0x3c8ccf33	0.017188644
242	0xbae271b4	-0.0017276318
243	0xbe0f68e0	-0.1400485
244	0x3d429e0a	0.047514
245	0x3d8a3fba	0.06750436
246	0xbd9e475a	-0.07728453
247	0x3e24b4a1	0.1608453
248	0x3d6f45aa	0.058416046
249	0xbe11f9d1	-0.14255454
250	0xbe377c0c	-0.17918414
251	0xbe678487	-0.22609149
252	0x3d1dda5f	0.038538333
253	0xbe19601f	-0.14978074
254	0xbdf450ad	-0.1192945
255	0xbdafcf77	-0.08584493

sequential/dense_1/MatMul f4 [150, 400]
0	0xbe6f5438	-0.2337197
1	0xbd0cd19f	-0.034379598
2	0x3e2ee126	0.17078075
3	0x3cabde2e	0.020979967
4	0xbd74332d	-0.059619118
5	0x3dcc7dfa	0.099849656
6	0x3db8f7f8	0.09031671
7	0x3d14d545	0.036336202
8	0xbd2cd4fc	-0.042195305
9	0xbd298162	-0.041383155
10	0x3d33978a	0.04384569
11	0xbd743afa	-0.059626557
12	0xbd850878	-0.06495756
13	0xbf158bf7	-0.58416694
14	0xbdc00d25	-0.09377507
15	0x3dc34e6f	0.095364444
16	0x3c9e952e	0.019358244
17	0x3cc512ed	0.024056876
18	0x3e4e1b95	0.20127709
19	0xbefdec46	-0.49594325
20	0xbd76a3f3	-0.060214948
21	0xbdb321b0	-0.0874666
22	0xbc31e818	-0.010858558
23	0x3eacaadd	0.33724108
24	0x3d3ce650	0.04611808
25	0x3d0285b6	0.031865798
26	0x3db3b8cf	0.08775484
27	0x3d0a514b	0.033768933
28	0xbd888e1d	-0.06667731
29	0xbda6dbf2	-0.0814742
30	0xbcf44102	-0.029816154
31	0x3c228466	0.009919262
32	0xbe0b21f5	-0.13587172
33	0x3fa97fbb	1.3242105
34	0xbe94e4b5	-0.2908074
35	0x3edfea25	0.43733326
36	0x3e2f59fa	0.17124167
37	0xbcd9b9e6	-0.026577901
38	0x3da674ea	0.08127768
39	0xbd157844	-0.036491647
40	0x3bd87155	0.006605307
41	0xbdab0a56	-0.08351581
42	0xbc9bdd85	-0.019026527
43	0x3d8c636a	0.06854899
44	0xbe0258b8	-0.12729156
45	0xbb19615a	-0.0023403973
46	0xbc80308c	-0.015648149
47	0xbd55b514	-0.052174643
48	0x3d80641a	0.06269093
49	0x3dc73542	0.09726955
50	0x3d76e3fb	0.060276013
51	0x3e1db2ec	0.15400285
52	0x3d55c285	0.05218746
53	0x3d8dfb07	0.06932645
54	0xbdb30e5c	-0.08742973
55	0x3e0ea408	0.1392976
56	0xbd8ea18f	-0.069644086
57	0x3dbf5bc8	0.09343678
58	0xbdc9d9e1	-0.0985601
59	0x3d0b9365	0.034076113
60	0xbdc77b11	-0.0974027
61	0x3d97d3b0	0.07413423
62	0xbd79040b	-0.06079487
63	0xbda0a714	-0.078443676
64	0x3f16f4e3	0.5896742
65	0xbca3b971	-0.019985886
66	0xbdcfeade	-0.10152219
67	0x3e628f81	0.22125055
68	0x3daaede6	0.08346157
69	0xbd693f9d	-0.056945432
70	0x3dcc2315	0.09967629
71	0xbdb25b16	-0.087087795
72	0x3bb3b6d2	0.0054844404
73	0x3db453a4	0.08805016
74	0xbdb66fac	-0.089080185
75	0x3de81d5a	0.11333723
76	0xbd997b24	-0.0749419
77	0xbfed7d2d	-1.8553826
78	0x3cac1be3	0.021009391
79	0xbdee7959	-0.11644239
80	0xbc952c7b	-0.018209687
81	0x3bf78f18	0.0075549
82	0x3cb0468f	0.02151802
83	0x3c6f706b	0.014614205
84	0xbe2effcb	-0.17089765
85	0x3fa06012	1.2529318
86	0x3cef0c36	0.029180627
87	0x3d47a6fb	0.04874323
88	0xbd77dc18	-0.060512632
89	0x3ed133fc	0.40859973
90	0x3db6830c	0.08911714
91	0xbca9f248	-0.020745412
92	0x3c8887c2	0.016666297
93	0xbdb7bae0	-0.089711905
94	0x3d662efa	0.056197144
95	0xbe4d401c	-0.20043987
96	0xbceef544	-0.029169686
97	0x3dd41628	0.103557885
98	0xbaf803af	-0.0018921996
99	0x3d9b04be	0.07569264
100	0x3c084c5e	0.008318989
101	0x3da28112	0.079347745
102	0x3dc10d8b	0.09426411
103	0xbd814c59	-0.0631339
104	0xbda802d0	-0.082036614
105	0x3d9841ce	0.07434426
106	0x3ca88328	0.020570353
107	0xbcfb5b77	-0.030683262
108	0x3d5c3c09	0.05376819
109	0xbd2e7b10	-0.04259783
110	0xbb378c3c	-0.002800717
111	0x3c7d7982	0.015470864
112	0xbd9d057a	-0.0766706
113	0x3be996b5	0.0071285614
114	0xbd56d94a	-0.052453317
115	0x3cbd4f5c	0.02310913
116	0x3ce95466	0.028482627
117	0xbe87e96c	-0.26545274
118	0xbccf3fbe	-0.02529895
119	0x3d798cc1	0.06092525
120	0x3dc021fd	0.09381483
121	0x3df2aebd	0.11849735
122	0xbd216c96	-0.039410196
123	0xbdd2702d	-0.10275302
124	0xbcf15529	-0.029459553
125	0xbd64b872	-0.055839963
126	0x3d87d1d2	0.06631817
127	0x3c3aeb6f	0.011408671
128	0x3d9fc614	0.07801452
129	0xbd704964	-0.05866374
130	0xbf589f47	-0.8461804
131	0x3dd11153	0.102083825
132	0x3ca4ae46	0.020102631
133	0x3cc7ffd0	0.024413973
134	0x3d980574	0.07422915
135	0x3d99b05a	0.075043395
136	0x3d14f3d4	0.036365345
137	0x3d883fb4	0.066527754
138	0x3d94ee7b	0.07272049
139	0x3daec118	0.085329235
140	0xbd3c5232	-0.045976825
141	0x3c900367	0.017579747
142	0xbce431ec	-0.027855836
143	0x3dc5fce6	0.09667377
144	0x3daeed15	0.085413136
145	0xbc522fa8	-0.012828745
146	0xbcada0bf	-0.021194814
147	0xbd775728	-0.060385853
148	0xbc910c00	-0.017705917
149	0x3dcf4c9c	0.10122034
150	0x3d837754	0.064192444
151	0xbdd9aa23	-0.10628154
152	0xbdbd51ce	-0.09244119
153	0xbd5e4c32	-0.054271884
154	0xbda40802	-0.0800934
155	0x3cddf8ca	0.027096171
156	0xbd99ad9f	-0.07503819
157	0xbd85102e	-0.06497227
158	0x3e017585	0.12642486
159	0xbd7c137b	-0.061542016
160	0x3e1454db	0.14485495
161	0xbb9957bb	-0.0046796477
162	0xbdbd1d8e	-0.09234153
163	0x3cf248d0	0.029575735
164	0x3e3d0b95	0.1846145
165	0x3d96e49e	0.07367824
166	0xbdba1344	-0.09085706
167	0x3dadc823	0.08485439
168	0x3d049e80	0.03237772
169	0x3da9e3fb	0.08295437
170	0x3c17909c	0.009250786
171	0x3d2763fb	0.040866833
172	0x3dd383ec	0.103278965
173	0x3d35ebf3	0.04441447
174	0x3d946684	0.07246116
175	0x3e2a088c	0.16604823
176	0x3d823f84	0.06359771
177	0x3f33d687	0.7024922
178	0x3d920350	0.07129538
179	0xbd49adba	-0.049237944
180	0x3dc1b0a5	0.094575204
181	0xbd642b9f	-0.055705663
182	0xbec37376	-0.38174027
183	0x3ca7e8bf	0.020496724
184	0xbd599cc7	-0.05312803
185	0x3d5255e9	0.05135146
186	0x3da1cb8b	0.07900151
187	0x3c15a639	0.009133869
188	0xbcacf9e7	-0.021115256
189	0x3dd7bd30	0.105341315
190	0x3d9de420	0.07709527
191	0xbc010556	-0.007874807
192	0xbd5d46e5	-0.05402269
193	0x3ce2d8f8	0.02769135
194	0x3dda8814	0.10670486
195	0xbca4fe07	-0.02014066
196	0x3d42f640	0.047598124
197	0x3d2eeea9	0.042708073
198	0xbdbafa26	-0.09129743
199	0x3c5b9f19	0.013404631
200	0xbd0ef7ae	-0.034904175
201	0x3d5ea7e4	0.05435933
202	0xbd0ca77e	-0.03433942
203	0xbd90d742	-0.07072307
204	0xbdc545a5	-0.09632424
205	0x3f32f033	0.69897765
206	0xbcc86a18	-0.024464652
207	0x3dbab308	0.09116179
208	0x3d389802	0.04506684
209	0xbdb412a7	-0.0879262
210	0xbd32bf08	-0.043639213
211	0xbedd4108	-0.43213677
212	0xbe1bb259	-0.15204753
213	0x3da3cac3	0.07997658
214	0xbd1760f7	-0.036957707
215	0xbddd6563	-0.108103536
216	0x3d67ff9c	0.056640252
217	0xbcbb9bae	-0.022901382
218	0xbc783e43	-0.015151563
219	0x3dc26bc6	0.094932124
220	0xbc0dce48	-0.008655138
221	0x3daa950a	0.08329208
222	0xbdac20a9	-0.08404667
223	0x3f1342e3	0.57523936
224	0x3ea82f45	0.32848564
225	0x3ce5a18a	0.02803113
226	0x3eb5aa5b	0.35481533
227	0xbd55facd	-0.052241135
228	0xbd4aee31	-0.049543563
229	0x3dc9d487	0.098549895
230	0x3dc5806b	0.096436344
231	0xbdb9f45a	-0.090798095
232	0x3d0e94d2	0.034809895
233	0x3efb5398	0.49087214
234	0xbe6a2a93	-0.22867803
235	0x3e4642ab	0.1936137
236	0xbdc33ef7	-0.09533494
237	0x3d28b8e0	0.041191936
238	0xbc8c382a	-0.017116625
239	0x3ca67c6a	0.020322997
240	0x3d61058e	0.054936938
241	0xbd991a36	-0.074757025
242	0xbd9faa0a	-0.07796104
243	0xbc2fd11d	-0.010731009
244	0xbd8959dd	-0.06706593
245	0x3d3ed286	0.04658749
246	0xbd12efc8	-0.035873204
247	0xbd1116b2	-0.035422035
248	0x3c6909ee	0.014223559
249	0x3d439d7f	0.04775762
250	0xbd9b3752	-0.07578911
251	0x3d9bbda9	0.07604534
252	0xbd84492c	-0.06459269
253	0x3b617196	0.0034399978
254	0xbd7fc0a5	-0.06243958
255	0xbc67a7ce	-0.014139129

sequential/dense_2/MatMul f4 [7, 150]
0	0xbf89eb50	-1.0774937
1	0x3e81acfc	0.2532729
2	0x3d32fa77	0.043695893
3	0xbd0c8cd1	-0.03431398
4	0x3f498907	0.7872471
5	0x3d93e5d3	0.0722157
6	0xbeb5322e	-0.35389847
7	0x3e7df47c	0.24800295
8	0xbe677fe4	-0.2260738
9	0x3eacba16	0.33735722
10	0xbe3888d6	-0.18020949
11	0x3e6b5a9f	0.22983788
12	0x3e92a694	0.28642714
13	0x3eba205b	0.3635281
14	0x3f1c3a2f	0.6102628
15	0x3f835f12	1.0263388
16	0xbe90eae3	-0.28304204
17	0xbf3be6f9	-0.7339931
18	0x3ef938fb	0.48676285
19	0x3f53ec74	0.82782674
20	0x3ed92d92	0.4241758
21	0x3eefca6f	0.46834132
22	0x3ea09bc7	0.3136885
23	0x3f5dee09	0.8669134
24	0xbe96f0a0	-0.29480457
25	0xbe3ce1b1	-0.1844547
26	0xbf83c964	-1.0295835
27	0xbf0b6aa9	-0.54459625
28	0x3f1e2d2a	0.61787665
29	0xbf8b20a3	-1.0869335
30	0xbf7833f1	-0.96954256
31	0xbf523936	-0.82118547
32	0xbf7534f1	-0.9578391
33	0x3eb6f652	0.35734802
34	0xbdc7801f	-0.09741234
35	0x3ef9d580	0.487957
36	0xbedb4528	-0.428262
37	0xbe061e66	-0.13097534
38	0x3f548397	0.8301329
39	0x3d786c1a	0.06064997
40	0xbf1591c8	-0.5842557
41	0x3c14192d	0.0090392055
42	0xbe097f84	-0.1342755
43	0x3f7e4d5f	0.9933681
44	0x3f3e9608	0.7444768
45	0x3dff6d84	0.1247206
46	0x3f2c0c83	0.6720659
47	0x3ec21ee8	0.37914205
48	0x3ec2e0dd	0.38062182
49	0x3ee7e51a	0.45291978
50	0xbf317d18	-0.693315
51	0xbd22ca48	-0.03974369
52	0x3d93a914	0.072099835
53	0x3d9361ef	0.07196414
54	0x3edc62cb	0.43044123
55	0x3d4a9f3b	0.04946826
56	0xbf2714ce	-0.6526612
57	0x3e1603ce	0.14649889
58	0x3ea6ec62	0.3260222
59	0xbf32042d	-0.6953762
60	0x3e43788f	0.19088958
61	0x3eafb6ab	0.34319052
62	0xbfb39427	-1.4029588
63	0x3f88dc46	1.0692222
64	0x3fa44408	1.2833261
65	0x3ee0dfde	0.43920797
66	0x3da0b755	0.07847468
67	0xbf116b6a	-0.56804526
68	0x3eff298f	0.49836394
69	0xbf0cc48a	-0.54987395
70	0x3a0f45ce	0.0005465419
71	0xbf71b0d2	-0.9441043
72	0xbe563d94	-0.20921928
73	0x3d7c6322	0.061617978
74	0x3d9d52cc	0.07681808
75	0xbec79df6	-0.38987702
76	0x3eb4fa53	0.35347232
77	0x3e6452da	0.2229723
78	0x3f5eca1d	0.8702715
79	0x3df9038d	0.121588804
80	0x3d9229cc	0.07136878
81	0xbdf37e94	-0.11889377
82	0xbe272465	-0.16322477
83	0xbe854a82	-0.26033407
84	0x3f61a4e2	0.88142216
85	0x3e76a560	0.24086523
86	0x3db153b8	0.08658546
87	0xbf587032	-0.84546196
88	0xbe0ee0ed	-0.1395299
89	0xbf0f89fe	-0.56069934
90	0x3e6ec0ec	0.23315781
91	0x3f171e5d	0.59030706
92	0xbeb08847	-0.3447897
93	0xbfdffb87	-1.7498635
94	0xbe8d5372	-0.27602726
95	0xbdcc66fc	-0.0998058
96	0xbe891da5	-0.2678043
97	0xbc64c060	-0.013961881
98	0x3efe4e0e	0.49668926
99	0xbe53d714	-0.20687515
100	0x3f8d23bf	1.1026534
101	0x3f06e850	0.5269823
102	0x3fa9b202	1.3257449
103	0xbd460f92	-0.048354693
104	0x3f08e5ba	0.53475535
105	0x3f5e655c	0.8687341
106	0x3ea53da7	0.322736
107	0xbf0db5b0	-0.5535536
108	0xbf93d42b	-1.1549124
109	0xbf279b1d	-0.6547106
110	0x3e1a098a	0.15042701
111	0xbeaf45b2	-0.3423286
112	0x3e5c9c61	0.21544029
113	0x3ee1659d	0.44022837
114	0x3f55ad84	0.8346789
115	0x3eae506b	0.3404573
116	0x3f038ec5	0.51389724
117	0xbebbfb33	-0.36715087
118	0x3f82dc7d	1.0223538
119	0xbf14cc13	-0.5812389
120	0x3efd64b0	0.4949088
121	0x3ef836c3	0.4847928
122	0xbe86ffc0	-0.26366997
123	0x3f86bb7d	1.0525967
124	0x3f1138e3	0.5672743
125	0x3e923ecf	0.28563544
126	0x3e621639	0.2207879
127	0x3dd9513f	0.106111996
128	0x3f1dd344	0.6165049
129	0xbf12158b	-0.5706412
130	0x3ea761e7	0.3269188
131	0xbf17fa4f	-0.59366316
132	0xbe49dafa	-0.19712439
133	0x3de3c4c0	0.111215115
134	0x3f13c3b9	0.57720524
135	0xbf3fee60	-0.74973106
136	0x3f7e9a8a	0.9945456
137	0x3e2bb868	0.16769564
138	0x3f91ba2e	1.1384943
139	0xbd41294c	-0.047158524
140	0x3f497b74	0.78704
141	0xbe440110	-0.1914103
142	0x3ea753a4	0.32681
143	0xbf7eaaff	-0.9947967
144	0x3f3accab	0.7296855
145	0xbe1113a4	-0.14167649
146	0xbf8f96c7	-1.1217889
147	0x3fab5eca	1.3388302
148	0xbf9f83a4	-1.2462049
149	0xbecc6578	-0.39921165
150	0x3faf9e3b	1.3720163
151	0xbf1e7bbd	-0.6190756
152	0xbd86f9a5	-0.06590585
153	0xbf58f367	-0.847464
154	0x3d8d1afb	0.06889912
155	0xbf431a48	-0.76211977
156	0xbf316d7b	-0.6930768
157	0x3e5fcfc8	0.21856606
158	0x3e9c87c1	0.30572322
159	0xbf90fd00	-1.132721
160	0xbeca7197	-0.39539787
161	0x3eb6d7d2	0.35711533
162	0xbe8bdbe0	-0.2731619
163	0xbebbf43d	-0.36709777
164	0xbe860a9a	-0.26179963
165	0xbe9e8f26	-0.3096859
166	0xbf1da22b	-0.61575574
167	0x3f2b842f	0.6699857
168	0xbf301e94	-0.6879666
169	0xbeed26bb	-0.46318612
170	0x3dc9b2de	0.09848569
171	0x3e74f278	0.2392062
172	0x3ee10b40	0.43953896
173	0x3ed3ecbb	0.4139155
174	0x3e8cd53d	0.27506438
175	0xbbcae777	-0.0061921435
176	0x3fae5b82	1.3621676
177	0x3efdd8c3	0.4957944
178	0xbda657b5	-0.081221975
179	0x3f551a14	0.8324292
180	0xbf1dc16a	-0.6162325
181	0x3deab06e	0.114594325
182	0x3f11217d	0.56691724
183	0xbf182b3b	-0.59440964
184	0x3fd67949	1.6755763
185	0xbf6a68b1	-0.91565996
186	0xbe972490	-0.29520082
187	0xbf621ef7	-0.883285
188	0xbef1967b	-0.4718512
189	0x3f9c0d9e	1.2191656
190	0x3dd36e61	0.103237875
191	0xbd7b60d6	-0.061371647
192	0xbf1e3c80	-0.61811066
193	0xbf05766a	-0.5213381
194	0x3f0b2048	0.5434613
195	0x3eb566c1	0.35429958
196	0x3f1224fb	0.5708768
197	0x3ec01a4d	0.37520066
198	0xbc94a21d	-0.018143708
199	0xbecf9427	-0.4054272
200	0x3f4765f5	0.7788995
201	0x3c4d68fd	0.012537238
202	0xbc878b65	-0.01654596
203	0xbf1fc90d	-0.62416154
204	0x3eaf914c	0.3429054
205	0xbddfbacf	-0.10924303
206	0x3e8f8900	0.2803421
207	0x3e83b489	0.25723675
208	0x3f18bf3b	0.59666795
209	0x3d866b72	0.06563462
210	0xbdaac6e6	-0.08338718
211	0x3f8cbacf	1.099451
212	0x3ef74d57	0.48301193
213	0x3ecb7fe8	0.39746022
214	0x3e927175	0.28602186
215	0x3e736ad9	0.23771228
216	0xbf05aaf2	-0.52213967
217	0x3d9e78c1	0.07737876
218	0xbdd91126	-0.10598974
219	0xbe9cc95a	-0.3062237
220	0x3ebaeeec	0.36510408
221	0x3f558a98	0.834146
222	0xbe196bd5	-0.14982541
223	0xbf1d4ea4	-0.6144812
224	0x3f4a4afa	0.79020655
225	0xbe4cf023	-0.2001348
226	0x3f9475f7	1.15985
227	0xbebf7ffb	-0.3740233
228	0x3f3a716e	0.7282933
229	0xbcd65d69	-0.026167588
230	0xbb856705	-0.004071119
231	0x3f3c28b0	0.73499584
232	0xbe86c461	-0.263217
233	0x3f1d4f79	0.6144939
234	0xbed55b65	-0.4167129
235	0xbe5ff4d8	-0.21870744
236	0xbda49b3b	-0.0803742
237	0x3e9c5e5a	0.30540735
238	0x3ebe5f69	0.37182167
239	0xbeb82073	-0.35962257
240	0x3f2db5d2	0.6785556
241	0xbe8790ea	-0.26477748
242	0xbec37299	-0.3817337
243	0x3f4b7462	0.7947446
244	0xbe0dde77	-0.13854395
245	0x3f894233	1.0723327
246	0x3fe2e41b	1.7725862
247	0x3c14792c	0.009062093
248	0xbedc8e38	-0.43077254
249	0x3d9c73f1	0.076393016
250	0x3dcd24cc	0.10016784
251	0x3f601c16	0.87542856
252	0x3e8e6591	0.27811864
253	0xbf19447d	-0.5987013
254	0x3e296625	0.16542871
255	0xbba45c6b	-0.0050159
