model.tflite (tflite, 270464 bytes, 6 tensors)

sequential/dense/BiasAdd/ReadVariableOp f4 [300]
-0.04514476 -0.039281983 0.0 -0.022724502 -0.009820372 -0.019581892 -0.058898542 -0.02470394
-0.0065769916 -0.019071825 -0.025684133 0.0 -0.02443943 -0.017390646 -0.010157343 -0.025107028
-0.019481761 -0.013348303 -0.01567759 -0.0063491375 -0.011589168 -0.21461496 -0.022258064 -0.00919756
-0.018654333 -0.018706407 -0.038343463 -0.030381372 -0.040973585 -0.005533936 -0.02900247 -0.015933868
-0.012086398 -0.0214387 -0.02672611 -0.02230893 -0.013729138 -0.05299217 -0.010743335 -0.031021714
-0.9584346 -0.028795894 0.0 -0.039341826 -0.004348294 -0.01134223 -0.01228149 -0.011639475
-0.0162576 -0.013020372 -0.018045632 -0.023262674 -0.038602952 -0.019583572 0.0 -0.026875462
-0.010084631 0.0 -0.015580207 -0.028174555 -0.013816576 -0.014103402 -0.0317636 -0.01683941
-0.006804768 0.0 -0.0125691695 -0.032514524 -0.0113908425 -0.015576729 -0.006282388 -0.016354937
-0.018818835 0.0 -0.030884797 -0.019379959 -0.043352272 -0.008783106 -0.0134768 0.0
-0.008176185 -0.024630792 0.28204414 -0.02253421 -0.034457676 -0.019451736 -0.009500219 -0.01426013
-0.007679401 -0.00513669 0.0 0.0 -0.018521631 -0.02204317 -0.036653623 -0.018995352
0.31938496 -0.010157116 -0.025596047 -0.02072599 -0.026072364 -0.005228648 -0.011399904 -0.022727279
-0.010701327 -0.01247622 -0.02375243 -0.01258977 -0.011275997 -0.01203799 -0.02825524 -0.01236677
-0.028149273 -0.02571869 -0.01616465 -0.009603079 -0.012459087 -0.9601904 -0.018709656 -0.03309528
-0.034670763 0.29246944 -0.02042046 -0.012421971 -0.018935213 -0.012725789 -0.01559289 0.3949475
-0.030096801 -0.026476819 -0.01262502 -0.021029696 -0.017050479 -0.012312691 -0.01654561 -0.0129247485
-0.028564023 -0.026457991 -0.010112266 -0.014291557 -0.02141134 -0.01699489 -0.01623279 -0.038489856
-0.005228521 -0.6266921 -0.010228208 0.0 -0.011947224 -0.024716409 -0.02717039 -0.0065102675
-0.0078454595 -0.01696885 -0.019575471 -0.005330083 -0.032676253 -0.028866252 0.0017572901 -0.006147121
-0.035760418 -0.015941435 -0.012012114 -0.011278612 -0.019879013 -0.011662279 -0.035908356 -0.012663032
-0.039799675 -0.03479979 -0.0028353333 -0.015716806 -0.018171605 0.0 -0.03802425 -0.012406094
-0.021874048 -0.02837944 -0.004625157 -0.008634995 -0.006773291 -0.016583068 -0.012404996 -0.022390448
-0.009411432 0.0 -0.031100707 -0.007845566 -0.0144885145 0.27285543 0.0 -0.057564724
-0.0046230257 -0.0052124057 -0.012143179 0.0 -0.007916162 -0.0078208465 -0.013302473 -0.026310187
0.0 -0.011554636 -0.025690733 -0.022248589 -0.0358398 0.0 -0.0077001736 -0.023902023
-0.021333769 -0.016487136 -0.03730829 -0.045706045 -0.031762894 -0.018999929 0.0 -0.017087683
-0.0231615 -0.013405633 -0.029682092 -0.017532649 -0.018100139 0.0 -0.0016665898 -0.03556618
-0.032702286 -0.0118080545 -0.00012917566 -0.025732577 -0.018929401 -0.05035607 -0.014409998 -0.043553118
-0.022070797 -0.020301338 -0.03388982 -0.020092502 -0.010796782 -0.0187102 -0.022463685 -0.003901869
-0.027073463 -0.030279212 -0.009603335 -0.008825636 -0.013110794 -0.018054519 -0.0034657326 -0.021087892
-0.012918856 -0.036418423 0.27155334 -0.040044326 -0.03034342 -0.025735812 -0.006095318 -0.021056777
00000000: b6e9 38bd 25e6 20bd 0000 0000 bc28 babc
00000010: a0e5 20bc 346a a0bc 993f 71bd eb5f cabc
00000020: ce83 d7bb 843c 9cbc 8867 d2bc 0000 0000
00000030: 3335 c8bc d476 8ebc fc6a 26bc 41ad cdbc
00000040: 3798 9fbc d7b2 5abc 4a6e 80bc 6d0c d0bb
00000050: 7ee0 3dbc 06c4 5bbe 8b56 b6bc 5db1 16bc
00000060: f9d0 98bc 2e3e 99bc 090e 1dbd 5be2 f8bc
00000070: ebd3 27bd 0556 b5bb 9796 edbc be87 82bc
00000080: 0706 46bc 36a0 afbc b7f0 dabc 38c1 b6bc
00000090: 2ef0 60bc 510e 59bd d004 30bc 4021 febc
000000a0: f85b 75bf 5ee5 ebbc 0000 0000 e524 21bd
000000b0: 227c 8ebb c3d4 39bc 4d38 49bc 7fb3 3ebc
000000c0: a92e 85bc 6653 55bc 6fd4 93bc 5d91 bebc
000000d0: 211e 1ebd ba6d a0bc 0000 0000 ee29 dcbc
000000e0: 023a 25bc 0000 0000 2044 7fbc 53ce e6bc
000000f0: ec5e 62bc f511 67bc 8c1a 02bd cdf2 89bc
00000100: 88fa debb 0000 0000 ebee 4dbc f32d 05bd
00000110: a8a0 3abc 8935 7fbc 7edc cdbb cafa 85bc
00000120: f529 9abc 0000 0000 1d02 fdbc b8c2 9ebc
00000130: 2792 31bd 04e7 0fbc cccd 5cbc 0000 0000
00000140: 68f5 05bc 84c6 c9bc 1768 903e aa99 b8bc
00000150: 7e23 0dbd 3f59 9fbc cea6 1bbc 52a3 69bc
00000160: 7ca3 fbbb ae51 a8bb 0000 0000 0000 0000
00000170: adba 97bc e193 b4bc 1c22 16bd 249c 9bbc
00000180: 6d86 a33e 086a 26bc cdae d1bc 8dc9 a9bc
00000190: b695 d5bc 1455 abbb aac6 3abc 8f2e babc
000001a0: 9e54 2fbc 0f69 4cbc 7594 c2bc 5345 4ebc
000001b0: f6be 38bc fd3a 45bc 8877 e7bc fe9d 4abc
000001c0: 4e99 e6bc 01b0 d2bc ba6b 84bc 3c56 1dbc
000001d0: 3321 4cbc 0acf 75bf fe44 99bc eb8e 07bd
000001e0: ee02 0ebd 8ebe 953e cf48 a7bc 8685 4bbc
000001f0: 051e 9bbc d47f 50bc 5279 7fbc 8f36 ca3e
00000200: 918d f6bc eae5 d8bc 2cd9 4ebc 7846 acbc
00000210: 72ad 8bbc 2bbb 49bc a98a 87bc 53c2 53bc
00000220: 19ff e9bc 6ebe d8bc ebad 25bc 2227 6abc
00000230: d666 afbc de38 8bbc a1fa 84bc 8aa7 1dbd
00000240: 0354 abbb e56e 20bf 3794 27bc 0000 0000
00000250: 4abe 43bc 117a cabc 7094 debc 1554 d5bb
00000260: 3e8a 00bc 4202 8bbc bd5c a0bc faa7 aebb
00000270: 89d7 05bd eb78 ecbc df54 e63a ca6d c9bb
00000280: 8479 12bd 9d97 82bc 75ce 44bc edc9 38bc
00000290: 50d9 a2bc 2513 3fbc a414 13bd 9b78 4fbc
000002a0: fc04 23bd 398a 0ebd 00d1 39bb 88c0 80bc
000002b0: 9edc 94bc 0000 0000 51bf 1bbd ee42 4bbc
000002c0: 3431 b3bc 007c e8bc a18e 97bb cb79 0dbc
000002d0: 7cf2 ddbb 37d9 87bc 533e 4bbc 2c6c b7bc
000002e0: 6832 1abc 0000 0000 e9c6 febc b08a 00bc
000002f0: 3c61 6dbc b5b3 8b3e 0000 0000 fdc8 6bbd
00000300: c07c 97bb d4cc aabb 2ff4 46bc 0000 0000
00000310: cab2 01bc 0223 00bc 9ef2 59bc 7688 d7bc
00000320: 0000 0000 a84f 3dbc 5f75 d2bc ac42 b6bc
00000330: c1cc 12bd 0000 0000 bd51 fcbb 2dce c3bc
00000340: 28c4 aebc 0810 87bc 94d0 18bd 4336 3bbd
00000350: cf19 02bd bda5 9bbc 0000 0000 78fb 8bbc
00000360: 30bd bdbc 4da3 5bbc dc27 f3bc a1a0 8fbc
00000370: be46 94bc 0000 0000 7971 daba d8ad 11bd
00000380: d5f2 05bd 9276 41bc 5473 07b9 20cd d2bc
00000390: d511 9bbc 2b42 4ebd ea17 6cbc c164 32bd
000003a0: d1cd b4bc fe4e a6bc 0dd0 0abd 0899 a4bc
000003b0: fce4 30bc 2246 99bc c305 b8bc 80b6 7fbb
000003c0: 2bc9 ddbc 1c0c f8bc 4e57 1dbc 6699 10bc
000003d0: a8ce 56bc 12e7 93bc 5821 63bb 84c0 acbc
000003e0: 9ca9 53bc 7c2b 15bd 0a09 8b3e 8505 24bd
000003f0: c492 f8bc e9d3 d2bc 3cbb c7bb 437f acbc

sequential/dense_2/BiasAdd/ReadVariableOp f4 [7]
-0.37967765 -0.4978869 0.001537253 -0.20091125 -0.299648 -0.27397245 0.67151695
00000000: 1c65 c2be 08eb febe a77d c93a aebb 4dbe
00000010: 766b 99be 1e46 8cbe 89e8 2b3f

sequential/dense_1/BiasAdd/ReadVariableOp f4 [100]
-0.061974593 -0.050460164 -0.19441022 -0.09299784 0.34818858 -0.070304975 -0.4524458 0.57635844
0.4413436 -0.22736597 -0.62802434 -0.083257854 0.054757506 -0.6548909 -0.057312183 -0.14190708
-0.026905596 0.07983696 0.46427563 -0.07258443 -0.1182786 -0.92961717 -0.08938723 0.19725099
0.060551878 -0.102735616 0.5349862 -0.6023744 -0.5278821 -0.11876335 -0.03788628 -0.54527473
-0.24220397 0.13629372 -0.26728302 -0.023310307 -0.105715 0.26006055 -0.07518769 -0.08449985
-0.032970916 -0.06951052 -0.42748314 -0.06395407 -0.04093918 -0.06113975 -0.079386815 -0.076587446
-0.4465635 -0.08386649 -0.1685231 -0.10423667 -0.06781441 -0.10147115 -0.05901339 -0.33619165
-0.05779207 0.45320576 -0.018703856 -0.042410348 -0.08552126 0.39033964 0.54959726 -0.062775314
-0.049872138 -0.07001294 -0.06108579 -0.101633556 -0.14768445 -0.04808813 -0.061070845 0.01779171
-0.09597203 -0.06651423 -0.10367674 -0.040384002 -0.14533459 -0.27015468 -0.047577213 -0.12536559
-0.28987318 -0.22514965 -0.06684214 -0.2167115 -0.3005345 -0.096187934 -0.3134634 -0.14271879
0.32076448 -0.016899198 0.25759202 0.11757447 -0.11142872 -0.5829264 -0.0833353 -0.11856966
-0.14109924 -0.18713737 0.6578489 -0.08850368
00000000: 12d9 7dbd 51af 4ebd 7913 47be a775 bebd
00000010: c645 b23e 0efc 8fbd faa6 e7be 3a8c 133f
00000020: caf7 e13e a0d2 68be 34c6 20bf 1883 aabd
00000030: 6849 603d eea6 27bf 2ec0 6abd 1750 11be
00000040: 2069 dcbc 8f81 a33d 89b5 ed3e 25a7 94bd
00000050: 0d3c f2bd 64fb 6dbf a710 b7bd 2afc 493e
00000060: 3f05 783d 0d67 d2bd dbf4 083f 3535 1abf
00000070: 4823 07bf 333a f3bd a52e 1bbd 2097 0bbf
00000080: 5104 78be 9590 0b3e 52d9 88be 42f5 bebc
00000090: 1b81 d8bd a826 853e 01fc 99bd 420e adbd
000000a0: 830c 07bd 885b 8ebd 12df dabe 5afa 82bd
000000b0: d7af 27bd ad6d 7abd 8e95 a2bd e1d9 9cbd
000000c0: f9a3 e4be 32c2 abbd 5291 2cbe 097a d5bd
000000d0: 48e2 8abd 1bd0 cfbd 06b8 71bd 5021 acbe
000000e0: 61b7 6cbd 960a e83e d438 99bc 79b6 2dbd
000000f0: c525 afbd 99da c73e 68b2 0c3f 5890 80bd
00000100: ba46 4cbd f262 8fbd 1835 7abd 4125 d0bd
00000110: 983a 17be 0ff8 44bd 6c25 7abd ecbf 913c
00000120: fc8c c4bd 9d38 88bd 7854 d4bd b269 25bd
00000130: 97d2 14be b751 8abe 53e0 42bd d65f 00be
00000140: 426a 94be a18d 66be 88e4 88bd 9fe9 5dbe
00000150: a8df 99be 2efe c4bd 467e a0be e024 12be
00000160: 3e3b a43e 3070 8abc 1ae3 833e e2ca f03d
00000170: be34 e4bd aa3a 15bf b3ab aabd a6d4 f2bd
00000180: 527c 10be f0a0 3fbe c968 283f 6b41 b5bd

sequential/dense/MatMul f4 [300, 120]
0.12923387 -0.021891797 0.102262646 0.16971152 0.14343467 0.01921211 -0.013673184 0.025080152
0.1004395 0.17169347 0.10349343 0.09389612 0.17289975 0.16064565 0.09837681 0.13255377
0.09411529 0.11145594 0.07007544 0.04971887 -0.058134586 -0.05585865 -0.10981596 -0.05862701
-0.04711763 -0.033275977 -0.12040686 -0.1492306 0.039803356 -0.085268386 -0.14609672 -0.014009209
0.039962985 -0.026153207 -0.025948131 0.012531529 0.014328344 0.03422248 0.00832701 -0.018123973
0.018546518 0.009677499 -0.03389967 0.09579733 -0.10501531 -0.11981915 -0.13237117 0.05983568
-0.16360836 0.025912968 0.028221326 -0.12467392 0.032672297 0.020749258 -0.109143004 -0.01696752
-0.13757075 0.055971783 0.0030451776 0.0024094682 -0.12925641 -0.017429693 0.034239113 0.04122739
-0.044728313 -0.08998803 -0.11952027 -0.019177875 -0.14609417 -0.07557716 -0.16762333 -0.061479244
-0.14868009 -0.045247186 -0.048480265 -0.019424556 -0.017824916 -0.067084186 -0.074673675 -0.1078898
0.0052964543 -0.20297891 -0.11558552 -0.0449301 -0.13036312 0.02676979 0.031621087 0.0045446027
0.07707968 -0.1317386 -0.105854385 -0.10751605 -0.10572121 -0.1699891 -0.11410969 -0.16251314
-0.0016591963 -0.17508546 -0.072656475 -0.03765855 0.09200757 0.055879835 -0.08941623 0.06049251
-0.028305164 -0.07844861 -0.058158983 0.08023185 -0.10817949 -0.012569911 -0.12691663 -0.022959277
0.08173118 0.08515055 -0.06619648 0.048742756 0.15538101 0.012978297 0.037702832 -0.10058313
0.008845286 0.03424292 0.052142058 -0.055189013 -0.060678203 -0.069866925 -0.060481608 -0.088823915
0.0089302305 -0.0077515403 0.08978359 0.015484252 -0.011697099 -0.08948951 0.022470385 -0.11063377
-0.11551275 -0.05495761 -0.008787844 0.056707174 0.0593496 -0.07800311 0.009091652 0.033091698
-0.14328165 0.020778658 0.044580728 0.060183268 0.010445295 0.007336191 -0.15818575 -0.009678939
-0.009265799 0.03875119 0.0481253 -0.039381165 -0.11456533 0.048837963 0.010684828 -0.019468568
-0.09027131 -0.09572856 -0.07114452 0.0059806914 -0.11075858 0.04565894 -0.022857955 -0.00025802295
-0.13163806 0.058124807 -0.03811019 0.087010935 -0.011394403 0.08363697 -0.024465095 0.06155927
0.07430513 -0.034474682 -0.08470012 0.010108606 -0.14413701 -0.10908761 -0.021933598 0.0365558
-0.045664843 0.07055317 -0.152933 0.08127998 -0.046636842 0.040126108 0.021740366 0.019725893
-0.03819122 0.089593925 -0.04216461 0.03249662 0.00084688637 -0.13020076 0.06431443 0.040436212
-0.15105894 -0.10292455 0.0767052 0.018490484 0.0032560532 -0.014608017 0.030247098 0.061547898
0.06824419 -0.048530698 -0.14292198 -0.082265735 -0.16295956 0.020364951 -0.018209439 -0.020967467
-0.020858329 -0.16320649 -0.07325835 0.035866335 0.052606154 0.0631812 -0.0039783265 -0.024488116
0.07321487 0.01596189 -0.0014731489 0.06049805 -0.10882311 -0.112231955 0.069235235 0.012492539
-0.065702334 0.040562175 0.08412802 0.005326971 -0.00958969 -0.1002377 0.08076157 0.008329475
-0.031868316 0.09171561 -0.004616402 0.06888167 -0.06574002 0.011407681 -0.10792996 0.04078742
0.009268768 -0.11302903 -0.031749003 -0.11938976 -0.05292829 -0.108800665 -0.07211787 -0.0711615
00000000: e255 043e 6d56 b3bc 146f d13d dbc8 2d3e
00000010: 8ae0 123e b762 9d3c 7e05 60bc e474 cd3c
00000020: 39b3 cd3d 6ad0 2f3e 5df4 d33d 9c4c c03d
00000030: a20c 313e 4b80 243e c879 c93d 2dbc 073e
00000040: 84bf c03d 0343 e43d b683 8f3d 04a6 4b3d
00000050: 881e 6ebd 0acc 64bd 31e7 e0bd e022 70bd
00000060: 6afe 40bd 644c 08bd df97 f6bd e8cf 18be
00000070: d808 233d 31a1 aebd 619a 15be e286 65bc
00000080: 3ab0 233d 403f d6bc 2d91 d4bc 0b51 4d3c
00000090: 6ec1 6a3c df2c 0c3d 036e 083c ba78 94bc
000000a0: deee 973c 5f8e 1e3c 61da 0abd 6431 c43d
000000b0: 4412 d7bd be63 f5bd 4f8c 07be 4216 753d
000000c0: f388 27be 6f47 d43c 6930 e73c 0a55 ffbd
000000d0: 63d3 053d 59fa a93c 5e86 dfbd 78ff 8abc
000000e0: 59df 0cbe ab42 653d 9a91 473b 2be8 1d3b
000000f0: cb5b 04be b7c8 8ebc 503e 0c3d 0dde 283d
00000100: 0935 37bd a54b b8bd 0bc7 f4bd eb1a 9dbc
00000110: b699 15be 33c8 9abd 73a5 2bbe a9d1 7bbd
00000120: 983f 18be 1d55 39bd 3e93 46bd 3f20 9fbc
00000130: 8f05 92bc 6f63 89bd 83ee 98bd 54f5 dcbd
00000140: e18d ad3b b4d9 4fbe 1ab8 ecbd a008 38bd
00000150: e97d 05be 524c db3c 1d85 013d e4ea 943b
00000160: f4db 9d3d 7ce6 06be 2fca d8bd 6031 dcbd
00000170: 5d84 d8bd 9f11 2ebe 57b2 e9bd d869 26be
00000180: 6479 d9ba 9a49 33be ebcc 94bd da3f 1abd
00000190: 776e bc3d 41e2 643d db1f b7bd ffc6 773d
000001a0: 3be0 e7bc aaa9 a0bd 1d38 6ebd 9950 a43d
000001b0: 358d ddbd 07f2 4dbc 6ff6 01be 1815 bcbc
000001c0: ad62 a73d 6963 ae3d 0592 87bd 7ca6 473d
000001d0: 331c 1f3e eca2 543c 496e 1a3d 87fe cdbd
000001e0: d2eb 103c 4e42 0c3d e992 553d e00d 62bd
000001f0: b589 78bd 6416 8fbd 90bb 77bd 50e9 b5bd
00000200: 1a50 123c a200 febb 75e0 b73d a9b1 7d3c
00000210: 30a5 3fbc 4746 b7bd d013 b83c f593 e2bd
00000220: f391 ecbd 3b1b 61bd e4fa 0fbc c845 683d
00000230: 9118 733d 18c0 9fbd 27f5 143c 298b 073d
00000240: 6db8 12be 0138 aa3c 489a 363d bb82 763d
00000250: be22 2b3c 6e64 f03b 72fb 21be 6a94 1ebc
00000260: 94cf 17bc 91b9 1e3d 091f 453d 254e 21bd
00000270: 3aa1 eabd 510a 483d 6b0f 2f3c 8c7c 9fbc
00000280: 2ae0 b8bd 560d c4bd 38b4 91bd adf9 c33b
00000290: 65d5 e2bd de04 3b3d 9b40 bbbc 4147 87b9
000002a0: 21cc 06be 4714 6e3d 6e19 1cbd ca32 b23d
000002b0: 97af 3abc dc49 ab3d 066b c8bc 9325 7c3d
000002c0: 4a2d 983d 5335 0dbd 4277 adbd 919e 253c
000002d0: a798 13be 5369 dfbd 17ae b3bc 89bb 153d
000002e0: 0f0b 3bbd 2e7e 903d 789a 1cbe 1e76 a63d
000002f0: 4606 3fbd 465b 243d da18 b23c 3298 a13c
00000300: 666e 1cbd 057d b73d ccb4 2cbd 2d1b 053d
00000310: 9501 5e3a 5953 05be 49b7 833d 71a0 253d
00000320: 32af 1abe 1bca d2bd 9e17 9d3d 5b79 973c
00000330: 8263 553b 7756 6fbc c3c8 f73c a619 7c3d
00000340: 9cc3 8b3d 20c8 46bd 245a 12be f07a a8bd
00000350: dfde 26be 66d4 a63c f62b 95bc f7c3 abbc
00000360: 16df aabc 9a1f 27be 7908 96bd 94e8 123d
00000370: 8d79 573d 2565 813d 9f5c 82bb 4d9b c8bc
00000380: aef1 953d 82c2 823c ad16 c1ba cecc 773d
00000390: a7de debd ded9 e5bd 34cb 8d3d 82ad 4c3c
000003a0: f28e 86bd 8624 263d 504b ac3d df8d ae3b
000003b0: 131e 1dbc 6c49 cdbd 5266 a53d 5a78 083c
000003c0: 5a88 02bd 65d5 bb3d 3045 97bb d511 8d3d
000003d0: b4a2 86bd 48e7 3a3c 620a ddbd b610 273d
000003e0: 08dc 173c c47b e7bd 3e0b 02bd 9e82 f4bd
000003f0: 56cb 58bd e2d2 debd 89b2 93bd 1fbd 91bd

sequential/dense_1/MatMul f4 [100, 300]
-0.14682773 0.03425496 0.05859687 -0.0882624 0.094651915 -0.12102945 -0.13253386 -0.012042995
0.002605088 -0.07018927 0.037346758 0.024954014 -0.06705343 0.07120562 0.03148616 0.0046378705
0.020268964 -0.01546777 -0.12047214 0.11929958 -0.09866336 -0.077048875 -0.048228063 0.043390147
0.03655771 -0.11343607 -0.071397536 0.032616384 -0.09695303 0.011438973 -0.037688084 0.010390215
-0.07108233 0.10854649 -0.03658413 0.06351626 -0.017041136 -0.14956154 -0.05213002 0.067981504
-0.10268734 -0.10271596 0.05879461 0.036651008 -0.10709912 0.1057076 -0.12729113 -0.04230276
-0.1267279 -0.06020238 -0.1208662 -0.03365026 0.026223533 -0.06696638 0.09924243 -0.031553093
-0.0389205 0.040074892 0.025581874 0.015522964 0.055939328 -0.092713006 -0.0807562 0.0262903
-0.066860616 0.09283944 0.011387281 -0.05264147 0.079994865 -0.05593796 0.0037673786 -0.12133968
0.031243805 -0.074819416 -0.12982339 0.059373714 0.039020322 0.02437054 -0.070355415 0.053483136
-0.105035864 0.061554946 -0.15839577 -0.021225259 -0.0032405232 0.0005209297 -0.060381588 0.112028316
0.049504347 0.0763523 -0.08261943 0.05768857 -0.08577083 0.019783653 0.07309358 -0.07828167
-0.075713515 0.1038085 -0.035549533 -0.009422347 -0.17144752 0.016173758 0.052569117 -0.046103626
-0.046007447 0.10732175 -0.019438695 -0.093133226 0.012458224 -0.11812993 -0.012549341 -0.11272815
-0.1272736 0.07705237 0.053358443 -0.08074192 0.011767056 0.047300402 -0.059829675 0.044012334
-0.10547371 -0.031443138 0.1059019 -0.078976214 0.043940343 -0.09992072 0.0142923305 0.020995812
0.05154282 0.050433524 -0.0014240369 -0.025810957 0.023295064 0.068698384 -0.040008757 -0.0063301865
-0.053683035 -0.008378393 0.030845158 0.06541638 -0.04615998 -0.067011185 -0.044939164 0.0403451
0.1195681 -0.004116174 0.074721776 0.068820335 -0.093652576 -0.100659095 -0.011340594 0.06054198
-0.067033514 -0.08000179 0.08677336 -0.060934436 0.028299607 -0.1110705 -0.10539865 -0.0579222
-0.080956064 0.01565542 -0.07877389 0.1013631 -0.094628766 -0.085949264 -0.05338598 -0.016051045
0.07832904 0.03209237 -0.10414348 -0.031807162 -0.043622956 0.057277076 0.061211865 -0.012323298
0.0009674542 0.03667412 0.06387522 0.048682358 -0.07801912 -0.02299211 -0.06565015 0.10821836
-0.04744529 0.045097537 0.0117862 0.022288658 -0.02096124 0.049388837 0.06013543 -0.11324151
-0.03668356 -0.018114425 0.04693389 0.04421995 -0.00859724 0.069726996 -0.05251058 0.0023522093
-0.087750986 -0.031392306 -0.07403417 -0.11679712 0.07058313 -0.06622049 -0.105080195 0.110371366
-0.117222704 0.07326953 0.0735983 -0.033426754 -0.11057269 -0.12113768 -0.1124719 -0.03532425
0.02422679 0.051833294 -0.027094137 -0.033912092 0.08898603 -0.09178304 -0.008120894 -0.038529407
-0.036383625 0.025230683 -0.079183295 0.08145717 0.11222326 -0.12819758 0.064488545 -0.087348245
-0.07394199 -0.06677383 -0.036586646 -0.017328419 0.08829016 0.06140251 0.0061172917 0.121633835
0.031740837 -0.013526951 -0.0085533485 0.048755087 -0.0850629 0.054054335 -0.0801781 -0.09542471
0.010925405 0.057363104 0.00034181774 -0.012531587 -0.009298367 0.030025668 0.11141532 0.032970767
00000000: 025a 16be ee4e 0c3d 4603 703d ebc2 b4bd
00000010: ddd8 c13d 4ade f7bd f5b6 07be fb4f 45bc
00000020: 20ba 2a3b 64bf 8fbd eaf8 183d 5c6c cc3c
00000030: 4f53 89bd 41d4 913d a2f7 003d 47f9 973b
00000040: 190b a63c 886c 7dbc 19ba f6bd 5753 f43d
00000050: 0410 cabd cdcb 9dbd ca8a 45bd deb9 313d
00000060: 8abd 153d 2c51 e8bd df38 92bd c298 053d
00000070: 4f8f c6bd 886a 3b3c d25e 1abd b83b 2a3c
00000080: 9d93 91bd 9f4d de3d 3ed9 15bd d014 823d
00000090: da99 8bbc a926 19be 4a86 55bd e339 8b3d
000000a0: bd4d d2bd bf5c d2bd 9ed2 703d 5e1f 163d
000000b0: c956 dbbd 3a7d d83d 9b58 02be a945 2dbd
000000c0: f5c4 01be c596 76bd b388 f7bd dbd4 09bd
000000d0: bcd2 d63c ab25 89bd 9d3f cb3d d13d 01bd
000000e0: 1a6b 1fbd 9225 243d 1491 d13c 0854 7e3c
000000f0: a320 653d 51e0 bdbd 8263 a5bd c15e d73c
00000100: 38ee 88bd 9b22 be3d b891 3a3c 959e 57bd
00000110: 59d4 a33d 341f 65bd 20e6 763b f080 f8bd
00000120: 02f3 ff3c ec3a 99bd 6cf0 04be da31 733d
00000130: c6d3 1f3d baa4 c73c 8016 90bd 2211 5b3d
00000140: 0b1d d7bd 0a21 7c3d 8032 22be 98e0 adbc
00000150: f55e 54bb 008f 083a af52 77bd 1a6f e53d
00000160: 12c5 4a3d 985e 9c3d 6034 a9bd da4a 6c3d
00000170: 9ea8 afbd 5411 a23c 16b2 953d 2452 a0bd
00000180: b00f 9bbd 8d99 d43d 639c 11bd 3060 1abc
00000190: f08f 2fbe d47e 843c b752 573d 28d7 3cbd
000001a0: 4e72 3cbd 81cb db3d e63d 9fbc a2bc bebd
000001b0: 941d 4c3c 1bee f1bd c09b 4dbc 04de e6bd
000001c0: 0354 02be a2cd 9d3d 628e 5a3d 055c a5bd
000001d0: 9cca 403c 11be 413d f60f 75bd 4746 343d
000001e0: 9a02 d8bd 85ca 00bd 18e3 d83d 48be a1bd
000001f0: cafa 333d 3ca3 ccbd 612a 6a3c 69ff ab3c
00000200: 901e 533d 6293 4e3d c0a6 baba 8071 d3bc
00000210: 4ad5 be3c bdb1 8c3d 39e0 23bd 746d cfbb
00000220: bee2 5bbd 8745 09bc fcae fc3c 06f9 853d
00000230: 3f12 3dbd 293d 89bd 2112 38bd e740 253d
00000240: 1fe0 f43d f8e0 86bb bb07 993d adf1 8c3d
00000250: eccc bfbd 5b26 cebd e6cd 39bc defa 773d
00000260: de48 89bd fad7 a3bd 3bb6 b13d 6396 79bd
00000270: 94d4 e73c ee78 e3bd 3fdb d7bd d43f 6dbd
00000280: 4bcc a5bd cc3f 803c 3554 a1bd 7597 cf3d
00000290: bacc c1bd 2b06 b0bd 42ab 5abd 7b7d 83bc
000002a0: fa6a a03d 4a73 033d 2d49 d5bd 3a48 02bd
000002b0: fcad 32bd 5e9b 6a3d 4bb9 7a3d a8e7 49bc
000002c0: c19c 7d3a 9a37 163d 03d1 823d 2767 473d
000002d0: 7dc8 9fbd f359 bcbc 9673 86bd 96a1 dd3d
000002e0: fe55 42bd 32b8 383d e81a 413c b496 b63c
000002f0: e8b6 abbc f34b 4a3d 9250 763d 2aeb e7bd
00000300: 8041 16bd b464 94bc c03d 403d fa1f 353d
00000310: 70db 0cbc 07cd 8e3d 5515 57bd 8627 1a3b
00000320: cab6 b3bd 3895 00bd 3a9f 97bd 5433 efbd
00000330: e38d 903d 9c9e 87bd 4934 d7bd 620a e23d
00000340: 7512 f0bd 560e 963d b5ba 963d 7eea 08bd
00000350: ef73 e2bd 0817 f8bd ab57 e6bd 29b0 10bd
00000360: 4377 c63c 264f 543d 86f4 ddbc 68e7 0abd
00000370: 4f3e b63d bff8 bbbd 800d 05bc 03d1 1dbd
00000380: ff06 15bd 94b0 ce3c da2a a2bd 04d3 a63d
00000390: 4fd5 e53d 3a46 03be 9212 843d a3e3 b2bd
000003a0: e66e 97bd b8c0 88bd e1db 15bd 54f4 8dbc
000003b0: 79d1 b43d 3381 7b3d 9073 c83b 291b f93d
000003c0: ae02 023d 25a0 5dbc 5823 0cbc 6ab3 473d
000003d0: 7535 aebd 1468 5d3d 6a34 a4bd 086e c3bd
000003e0: 7800 333c 93f5 6a3d 0036 b339 4951 4dbc
000003f0: 2e58 18bc 64f8 f53c b72d e43d 5b0c 073d

sequential/dense_2/MatMul f4 [7, 100]
-0.17044272 -0.25535446 -1.1668214 -0.08693992 -0.84932446 0.10376943 -1.0720794 -2.7700155
-0.3336956 -0.6529776 0.7066875 0.19534864 0.22216992 1.0841655 -0.13824247 -0.27764785
0.019625988 -0.8873475 -0.46706048 -0.095411606 0.061046626 0.8613543 -0.05149114 -2.7736528
-0.40638962 0.043774482 -2.2063072 -0.37834513 -1.5080286 -0.2526026 0.04360246 1.2916485
-2.0642104 -2.6699283 -2.4829476 -0.9260742 -0.05371907 0.2095693 0.021935577 -0.11307248
0.18735431 -0.18995805 -3.8148642 -0.13539882 0.05024158 0.0017237138 0.17233413 0.008002955
-3.3303885 0.10768653 -0.6324138 -2.7303329 0.20954287 -0.1288089 0.18964137 -0.41601685
0.14881559 0.56639355 -0.03718729 -0.24386951 -0.113249384 -2.3151138 -0.72729045 0.16115403
-0.046341166 0.082756445 -0.01721067 -0.22800702 -0.06610709 -0.0130874 0.15207109 -0.24792539
-0.09209202 -2.48981 -0.14136891 -0.12503867 -0.6642845 -0.16902608 0.056137547 -0.07505962
-5.384921 -2.1468942 0.086118765 0.33998436 -0.9961293 -0.16231243 -3.0431948 -0.7271948
0.27856857 -0.21869683 0.61528224 0.038079243 0.021363437 -3.3499923 0.086120896 0.117201924
-0.11781461 -0.314297 -0.13145025 0.03905155 -0.11671144 0.008591596 -0.15925567 -0.10350771
-0.124424785 -0.09864337 0.06130879 0.6546193 0.05062292 -1.3812084 0.18338919 0.07827368
-1.2784711 -0.9204998 -0.12176386 -0.41981757 -0.23381497 -0.77009046 -0.0003163613 -0.21201688
0.18079832 0.7042296 -0.1644582 0.16268335 -0.5000639 -0.2046203 -0.5879271 0.07950816
0.66234696 -0.07348166 0.08478458 -2.2545798 -0.6231878 0.71476346 -0.9495658 -1.0449039
-0.18779898 -0.54709643 -0.17646535 -0.01089306 0.08739613 -0.11033709 1.7823249 0.118306175
0.13684767 -0.1835406 -0.13095988 -0.24148257 1.1645397 -0.011453659 -1.760084 -0.112556316
-0.078753024 -0.06790351 -0.11472526 0.001255848 0.0977711 -0.60511136 0.28838873 -0.13468063
-0.051251348 0.46091244 0.1714616 0.0893907 -0.09792605 -0.047362696 0.10881174 -0.17937034
0.027002256 -1.024081 -0.107552804 0.11034316 -0.109102294 0.5246083 -0.19148695 0.15077978
0.1552768 -0.6146731 -0.005911502 -0.18814754 -0.29576018 -1.9844811 -0.12745126 0.119142324
0.15101373 0.09236827 -0.5977976 -0.007551589 -0.22850454 -0.08704367 -0.2833688 -0.18549252
-0.17531945 1.3231757 -0.06921922 0.12550224 0.12524195 -0.041868977 0.09052585 -0.19827744
-0.150164 0.15541922 -6.080402 0.002980093 0.0856285 0.043336418 -5.2781925 -2.817221
-0.5279122 -4.2416677 -6.0200114 -0.029521197 -5.3712716 -2.04175 -0.23409481 -4.8636227
-0.0098963715 -1.8506637 0.086986534 0.1319632 -2.3833923 -0.043395955 -0.22118133 -2.303027
-3.3033185 -0.2375836 -2.1235602 -1.1485567 -3.548496 0.050177876 0.12799296 -1.6563703
-1.288762 -3.2852867 -5.1047907 -1.0409845 0.11052784 -0.21544248 0.06395864 -0.09290632
0.04802868 0.030302623 -3.8414433 -0.110036 -0.053719357 -0.20575096 -0.16352345 0.10511158
-2.6001668 0.088713564 -1.6853564 -3.1349277 0.1973092 -0.015532605 -0.17358866 -1.3943124
00000000: 8988 2ebe d2bd 82be 675a 95bf 8f0d b2bd
00000010: 546d 59bf 1185 d43d e639 89bf ef47 31c0
00000020: 26da aabe 8a29 27bf 79e9 343f 7909 483e
00000030: 8380 633e efc5 8a3f 6f8f 0dbe dc27 8ebe
00000040: aec6 a03c 3529 63bf 8d22 efbe 2967 c3bd
00000050: 070c 7a3d b781 5c3f 60e8 52bd 8783 31c0
00000060: 4d12 d0be df4c 333d 2334 0dc0 74b6 c1be
00000070: 1507 c1bf 2155 81be 7e98 323d bd54 a53f
00000080: 061c 04c0 1be0 2ac0 9de8 1ec0 3313 6dbf
00000090: 8708 5cbd 5699 563e 3db2 b33c 8b92 e7bd
000000a0: cfd9 3f3e 5d84 42be bc26 74c0 fda5 0abe
000000b0: 1dca 4d3d 3dee e13a 5c78 303e d31e 033c
000000c0: 1625 55c0 c18a dc3d dfe5 21bf c6bd 2ec0
000000d0: 6892 563e 7be6 03be 5931 423e 2900 d5be
000000e0: 1d63 183e 2bff 103f b351 18bd eeb8 79be
000000f0: 4bef e7bd d32a 14c0 b52f 3abf 9005 253e
00000100: 3cd0 3dbd 367c a93d 64fd 8cbc ac7a 69be
00000110: 2763 87bd 896c 56bc 86b8 1b3e 27e0 7dbe
00000120: be9a bcbd 0c59 1fc0 03c3 10be 230a 00be
00000130: 8d0e 2abf 2c15 2dbe 7cf0 653d dcb8 99bd
00000140: 4651 acc0 b766 09c0 095f b03d 6e12 ae3e
00000150: 5402 7fbf 3b35 26be b4c3 42c0 7029 3abf
00000160: 8aa0 8e3e 10f2 5fbe 2383 1d3f fbf8 1b3d
00000170: 6002 af3c 4666 56c0 2760 b03d 9007 f03d
00000180: c948 f1bd 89eb a0be e59a 06be 85f4 1f3d
00000190: 6806 efbd c4c3 0c3c eb13 23be dafb d3bd
000001a0: 6cd2 febd 8905 cabd ed1e 7b3d 2195 273f
000001b0: fb59 4f3d 70cb b0bf 60ca 3b3e f34d a03d
000001c0: f1a4 a3bf e0a5 6bbf 555f f9bd 54f2 d6be
000001d0: 316d 6fbe a624 45bf 4bdd a5b9 f41a 59be
000001e0: 3223 393e 6448 343f bb67 28be 7796 263e
000001f0: 3004 00bf fc87 51be 6482 16bf 2dd5 a23d
00000200: 928f 293f 8d7d 96bd 8aa3 ad3d 094b 10c0
00000210: 3c89 1fbf bdfa 363f bf16 73bf 69bf 85bf
00000220: 604e 40be 830e 0cbf 55b3 34be ce78 32bc
00000230: befc b23d 6af8 e1bd 3923 e43f 824a f23d
00000240: cc21 0c3e 11f2 3bbe 591a 06be 3547 77be
00000250: a30f 953f 21a8 3bbc 6f4a e1bf ed83 e6bd
00000260: 4449 a1bd ff10 8bbd 14f5 eabd 449b a43a
00000270: 373c c83d 94e8 1abf b0a7 933e b8e9 09be
00000280: efec 51bd b7fc eb3e a193 2f3e 7912 b73d
00000290: 748d c8bd 63ff 41bd b1d8 de3d dcac 37be
000002a0: d633 dd3c 1615 83bf a544 dcbd 98fb e13d
000002b0: 0671 dfbd bb4c 063f 2815 44be 0466 1a3e
000002c0: e200 1f3e 375b 1dbf 46b5 c1bb c0a9 40be
000002d0: e16d 97be 7a03 febf 9582 02be e400 f43d
000002e0: 58a3 1a3e 932b bd3d 4309 19bf 5273 f7bb
000002f0: 18fd 69be f443 b2bd b715 91be c0f1 3dbe
00000300: f186 33be d25d a93f cec2 8dbd a983 003e
00000310: 6d3f 003e ce7e 2bbd 9e65 b93d 3e09 4bbe
00000320: 97c4 19be 3726 1f3e a792 c2c0 aa4d 433b
00000330: ff5d af3d 8781 313d f4e6 a8c0 594d 34c0
00000340: 4125 07bf bebb 87c0 efa3 c0c0 70d6 f1bc
00000350: 75e1 abc0 08ac 02c0 8db6 6fbe cca2 9bc0
00000360: 6424 22bc 8ce2 ecbf ff25 b23d 5c21 073e
00000370: 8089 18c0 f5bf 31bd 5c7d 62be cb64 13c0
00000380: 9269 53c0 1e49 73be 69e8 07c0 e803 93bf
00000390: 8f1a 63c0 5187 4d3d 9610 033e f103 d4bf
000003a0: 27f6 a4bf 2342 52c0 725a a3c0 fb3e 85bf
000003b0: 6c5c e23d f49c 5cbe bffc 823d ab45 bebd
000003c0: b9b9 443d 353d f83c 35da 75c0 8e5a e1bd
000003d0: d408 5cbd 61b0 52be b172 27be bd44 d73d
000003e0: 2269 26c0 75af b53d c2b9 d7bf a8a2 48c0
000003f0: 6c0b 4a3e 787c 7ebc 3ac1 31be d478 b2bf
